mnist_cnn_model.pth (torch, 90015 bytes, 8 tensors)

conv1.weight f4 [10, 1, 5, 5]
00000000: 069a 3ebe 45f3 b2be 299f 04bd 0ac4 26bc
00000010: 45d8 f93d 9a00 94be f55e 11be 53b5 113e
00000020: 344f a33e c660 523d 0d7c b1be b346 17be
00000030: a54e 743e 03ad 243e 0189 22be 7d08 b2be
00000040: ebc3 263d c020 8ebc f6bb 523e 093c c03d
00000050: 2d5f 4dbe f1a0 1fbe 889b e8bd 934c f9bd
00000060: feb3 73bc f4ac 40bc 82ef 763b 40b6 a03e
00000070: db9c b33c cc1e 3e3e 766f 523e f2ee 3d3e
00000080: 8bb9 a13e ca35 b93e af9e 273e 6d8f 823d
00000090: a518 a43d cd2c 6fbd c68d 50bd e7a6 90bd
000000a0: 22c0 20be 62d7 c4bd e16d 81be 6e56 cdbe
000000b0: f4c0 d8be fc63 a8be 5d99 ebbe 5714 c6be
000000c0: 8675 ebbd a1f5 353d ee08 363d 5909 a2bb
000000d0: ec68 873e bced 203e 0aa6 953d 612a cb3a
000000e0: 96bd 37be d5df cabd fe8f 7f3e 4dac b43d
000000f0: 20f3 debd 71ea 293d 765f 0cbc 641d 1b3e
00000100: 95d4 5c3e e738 43be 7ae7 67be 6a69 9bbe
00000110: 51bf d03c 3606 d23e 0796 76bd ebf8 58be
00000120: 25cd 47be 1a4e 03bf 6075 8fbd 48b6 5c3d
00000130: b654 53be 65db c0be d688 a5bd 48ab 0c3e
00000140: 48a0 0c3d 810e e1be 8bde 7fbe 4cb9 e3bd
00000150: dc7b 153d e90a 67be 06e8 94be 833b 26be
00000160: 412d 643d 0e9b e63d 18c3 8abe ba12 4dbe
00000170: 88ab afbd d0d0 0e3e 5819 733e 4fa0 90be
00000180: 214b 47be 1147 463d 9943 2c3d 88c7 b23e
00000190: 7f70 943d 48d1 ecbd fe7a e33d b37f 1a3e
000001a0: 2a6e 14bc f823 16be f752 37be 86cf 52bd
000001b0: 552f 9f3c 5011 053e 823d a6be b5b2 87bd
000001c0: 4dd2 46bd 52c7 2a3e 24f0 213e 8e9b 94be
000001d0: 8a00 49bd cd8d 6e3e fd9a 6e3e 1960 45bd
000001e0: 3137 c6bb 056a 4c3e b578 983d 30c4 f5ba
000001f0: cfbd 753d 4669 3abe c660 7cbe c068 103e
00000200: cef3 dc3c fd23 15be a454 aebe 96c4 263e
00000210: 7614 453e e72b 803d 1d87 93bd f24d 803e
00000220: 88dc 753d 3a93 2e3e 8a79 25be 2edd 81ba
00000230: c124 303e db40 f0bd 17ce 70be 5015 a7bd
00000240: 5969 dbbd 5b6d d2bd 2e1f cb3c eedc 783c
00000250: 770e f83d 0a3e 8f3c b245 8cbe 7fdc 80bd
00000260: cfb3 c2bc 9788 433e 0e3f fabd 9a38 2dbe
00000270: 0445 5abd 8755 e03c 25b2 473e d1e1 8f3d
00000280: bb47 e1bd c697 ac3d 93bf af3b 7d00 633d
00000290: 2605 cb3b 2605 8d3e 208f abbd 470e 7dbe
000002a0: 8dd4 083e 75fa ab3c 82b2 7f3d 413b 63be
000002b0: e7b9 90bd db32 113e 0785 b73d 8fb4 a43b
000002c0: 158c fd3d 30ff 96be feb1 6dbe 6ff6 03be
000002d0: 582f 6cbd 5779 77be 7fd5 83be 3684 f1be
000002e0: 6dd1 b4be 8cdc d1bc fa8a da3c a0ee 7d3d
000002f0: 1b18 5e3e 5ce4 2d3d 6cf9 843e 608e ed3d
00000300: a6ee 343e af6d ba3e 7804 c03d 2c0e 30be
00000310: 6157 b53d 0e99 3e3e a3fa 83bc 7fb0 993e
00000320: 57fd 5abd 0606 903c 9666 553e 237a bc3d
00000330: 1327 483c 4502 c33d 628d c93e c8d1 ca3d
00000340: 4098 923c e59f 83be 1800 a83e c87c 633e
00000350: ca2a 57bd 8533 89be 2555 033b da5f 383e
00000360: 2280 9d3c bd12 97bd 5e51 26be cc7f babe
00000370: ecf2 b23d 33b9 16bd 46e6 53be e2bc edbc
00000380: 374b 4abe 2ed3 8e3b d7a0 91be c6e2 7abe
00000390: c49c 5c3d e7bc 46be eb44 4c3c e0cc 3f3e
000003a0: 7750 1ebe 5c65 50be 11f1 76be a688 2c3e
000003b0: 8172 803e e5cd 443e f5aa 893d 85c4 bc3d
000003c0: f81c 08be e7f0 4b3e 4a8c 7c3e 5342 f83d
000003d0: 08e6 58be 8e11 e6be 470e d6be 7f12 6c3e
000003e0: 3441 ae3c 275d 1fbe
-0.18613443 -0.34951225 -0.03237835 -0.010178575 0.12199453 -0.2890671 -0.1419638 0.14229326
0.31896365 0.05136182 -0.34664956 -0.14773063 0.23858126 0.16081624 -0.15872575 -0.347721
0.040714186 -0.0173496 0.20579514 0.09386451 -0.20055838 -0.15588738 -0.1135779 -0.121728085
-0.014874456 -0.011759985 0.003767938 0.31389046 0.02192538 0.18566436 0.20550331 0.18548182
0.3158687 0.3617385 0.16369127 0.063750125 0.08012513 -0.058392335 -0.050916456 -0.07063084
-0.15698293 -0.096113935 -0.25279143 -0.40105003 -0.42334712 -0.32888782 -0.46015444 -0.38687393
-0.11497025 0.044423703 0.04444211 -0.004944962 0.26447237 0.15715688 0.0730706 0.0015500301
-0.17943415 -0.09905974 0.24957272 0.08821926 -0.10886216 0.041483346 -0.008567682 0.1514793
0.21565469 -0.19064675 -0.22646895 -0.30353862 0.025481852 0.41020364 -0.06020167 -0.21188705
-0.1951185 -0.5129105 -0.070048094 0.053884774 -0.20637783 -0.37667385 -0.0808274 0.13737214
0.034332544 -0.43956378 -0.24987237 -0.11119327 0.036495075 -0.22562756 -0.2908327 -0.1623364
0.05570722 0.11260043 -0.2710197 -0.20026675 -0.08577639 0.13946843 0.23740137 -0.28247306
-0.19462253 0.048407618 0.042056654 0.34917855 0.072480194 -0.11563355 0.11107443 0.15087776
-0.009059468 -0.14662158 -0.17902742 -0.05146744 0.01943175 0.12994885 -0.32468802 -0.066258825
-0.048540402 0.16677597 0.15814263 -0.2902493 -0.04907278 0.2329628 0.23301311 -0.04818735
-0.00604906 0.19962318 0.07444898 -0.0018750485 0.05999547 -0.18204221 -0.24646291 0.14102459
0.026971724 -0.1456451 -0.3404895 0.16285929 0.19246086 0.06258374 -0.07203505 0.25059468
0.060024768 0.1704835 -0.16159645 -0.0009907836 0.1720152 -0.1173112 -0.23516117 -0.08158362
-0.10713453 -0.10274764 0.024795141 0.0151893925 0.12112134 0.017485637 -0.27396923 -0.06292056
-0.02376738 0.19095074 -0.12219058 -0.16916123 -0.053288475 0.027384533 0.1950155 0.07025493
-0.110000096 0.08427386 0.0053634136 0.055420388 0.006195682 0.2754299 -0.08376908 -0.24712478
0.13362332 0.02099345 0.062426098 -0.22190572 -0.07066708 0.14179556 0.0896092 0.005026407
0.12380234 -0.29491568 -0.2321243 -0.12886976 -0.057662338 -0.24167381 -0.25748822 -0.4717118
-0.3531603 -0.02561786 0.026677597 0.06199515 0.21688883 0.04245411 0.25971544 0.115994215
0.17669162 0.36411807 0.09375852 -0.17192906 0.08854557 0.18613073 -0.016110724 0.30017468
-0.05346426 0.017580997 0.20839915 0.09202983 0.012216347 0.09521917 0.3936568 0.09903294
0.017894864 -0.25707927 0.32812572 0.22215569 -0.05253104 -0.2679712 0.0020039764 0.18005314
0.019226138 -0.07376621 -0.16241977 -0.36425626 0.0873774 -0.036797713 -0.20693311 -0.02902073
-0.19755255 0.0043586707 -0.28443024 -0.2450057 0.05386044 -0.19407998 0.012467603 0.18730497
-0.15460382 -0.20351166 -0.24115397 0.16849002 0.2508736 0.19219168 0.067220606 0.092171706
-0.132923 0.19916116 0.24662891 0.12122025 -0.211815 -0.44935268 -0.41807768 0.2305393
0.021271326 -0.15562879

conv1.bias f4 [10]
00000000: 2c17 64be b03b 713d 9563 f3bd 94c2 87bd
00000010: 7787 84be 6b62 34be 51cb dbbe bc5c ccbd
00000020: 41ce a6be 6daf c2bc
-0.22274464 0.058894813 -0.11884228 -0.0662891 -0.258846 -0.17615668 -0.42928556 -0.09978625
-0.32579234 -0.02376529

conv2.weight f4 [20, 10, 5, 5]
00000000: 1f31 abbd c5d5 25be 11c7 85bd e5e1 b8bd
00000010: 1607 62bd 219d d5bd c3a6 92bd 2611 7fbc
00000020: 7292 29be 3df5 b3bc b4c4 dcbd ecf7 20be
00000030: 55fe eabd b136 43bd 9c5d 1e3c 6245 f1bd
00000040: be8c aebd 3c12 1ebd bc5a febd f2e3 0fbd
00000050: e111 a3bb f1e8 7d3d 559a bb3c d069 adbd
00000060: 829c b7bd 83e1 b13d 7153 b03d c426 e6bd
00000070: a97c 9bbd 9a07 f83b 800a 1dbe 644c dabd
00000080: 9944 b7bd 5772 3f3d a4bb 3cb9 9c63 e43b
00000090: f663 61bc f76a d9bb 9f83 4cbd 8701 b93c
000000a0: 0c60 87bc ee16 4b3d f4e6 5fbd 483a adbc
000000b0: 07e4 febd f022 253d 1d59 7bbd 5ebe eabd
000000c0: a1d7 d9bc 3d6a 34bd 4060 e1bc 777c 273d
000000d0: 6873 9bbd 6c36 88bd 85f6 9dbd 2397 25bd
000000e0: f847 80bd 06ed debd e51f 24bc 0407 16bd
000000f0: 98c1 64bd 40fa 033d fbc3 9ebc eb0c 93bd
00000100: bb63 36bd 3cbd 7bbb 2a3a 0fbc a746 c5bc
00000110: ed95 eb3b fd56 03bd 3c95 ea3d 857f 2a3d
00000120: 346a dfbc 5018 cdbd 7605 c6bc 5a24 c9bd
00000130: 8760 18be 6e9c 95bd 15e7 bebd 5565 a3bd
00000140: 9604 78bd df7a 63bd 34a9 62bd 814c d9bd
00000150: aa0d 1ebd a3f2 17be b9f9 25bd feee d7bd
00000160: e72f e8bd 5514 41bd 2aee cdbd 6615 8bbd
00000170: 4661 afbd acc7 c3bb d775 07bd 23a2 cdbc
00000180: 996d 17bd e4a0 993c 6341 f3bc 2755 b3bd
00000190: bca1 d4bc 9f34 833d 20ea 8a3d 4838 56bd
000001a0: 7ebf 6fbd 22a2 dabd d33f c3bc c54d a7bc
000001b0: e1c5 2ebd fab5 033c 1fe7 84bc 63f6 b73b
000001c0: 5de7 a5bd f214 413b 69f1 1d3d 2ee3 a0bd
000001d0: b8b1 aabc 049c 863d e8dc 17bc f3e7 54bd
000001e0: 1385 c23d c6d7 543d 9d46 023b e4f7 d53d
000001f0: 83eb 30bd 5aad 393c 72d7 b8bc 39fc 03bd
00000200: 9bfc 723d fcd0 37bd 5c01 b2bc 344b a0bc
00000210: a462 86bd 60eb 20bd 0f21 cd3b a5fb bdbd
00000220: f4e7 28bd c0a6 08bd 23e1 76bd edf8 1d3d
00000230: 52f8 cebc 7a3c 9abc 659c 3fbd fd67 973d
00000240: b2a0 2a3d 074b 1fbe ba1b fabd db0d 76bd
00000250: 1f90 693b e99e 8f3d 5f00 dbbb 696e c23c
00000260: 3846 10bd 26a6 993d 3ea7 89bd 6495 84bd
00000270: 0c0c 8e3d 8aef 79bd c7d9 47bd 0982 17bd
00000280: 8004 87bd 04c3 403d c846 d33c 19b5 193c
00000290: 732a 74bd fa3b abbd 6a4e 39bd 0d97 f3bc
000002a0: b22f c63d a5d7 763c a1ae adbd 1a4c 5bbc
000002b0: 628f 0a3d 43ff d5ba 9a03 dfbc da12 3fbd
000002c0: 6f4e 31bd 9d35 f23c d956 10bd 8d1d 003d
000002d0: 7383 8b3d 832f 9dbc eefd df3a 7c4b 11be
000002e0: 8c99 dbbc 8724 a13c d3f8 b2bd 0fd7 70bd
000002f0: 2115 80bd 5ac0 473d 0e2c ffbd 876c 93bd
00000300: 2643 27bd a1d2 133b 8ea9 b53d bf4c 893c
00000310: 657a 87bc d6e0 02bd 4a27 91bc 98f1 a8bd
00000320: 9fb0 053d a7d4 be3b 4386 a2bd 8034 d73c
00000330: 6eb5 5a3c d8a1 51bb f5a1 cbbd a49b ed3b
00000340: d8ad 1fbd 0ff6 cd3d 9e33 03bd ecf0 39bd
00000350: 8b96 a6bd 6c72 0d3d ef64 843d 2de1 923c
00000360: be30 26bc c4cf adbc 1a68 1bbc d814 aa3d
00000370: 9012 a0bc 78da 03be a972 62bd 7458 08bd
00000380: bcca 20bb 056b 95bd e0c0 67bc 1e59 80bd
00000390: 93de 84bc 3b14 8b3d 544d f2bd d799 9cbd
000003a0: df9a 7bbb d577 a1bd e30e 60bd 0e15 73bd
000003b0: b036 e3bd 5a0c d3bd 45cf 7dbd 314d 943c
000003c0: ddb1 0bbc f99b b13c 8caf 87bd a11e efbd
000003d0: 30d2 39bd 14bb 34bd 1a24 c9bd 35bc 973c
000003e0: 2e88 d0bd 1676 ffbd 6e22 e93d 3485 7138
000003f0: e0b3 583d 1067 1a3e 79bc b53d 4608 69bd
-0.083589785 -0.16194828 -0.065321095 -0.09027461 -0.05518254 -0.104303606 -0.071607135 -0.015568053
-0.1655977 -0.021967525 -0.10779706 -0.15719575 -0.11474291 -0.04765958 0.009665873 -0.11780812
-0.08522938 -0.03859161 -0.1241965 -0.035129495 -0.0049764966 0.06198973 0.02290074 -0.08467448
-0.08965398 0.08685591 0.08609665 -0.11237863 -0.075921364 0.0075692656 -0.15336037 -0.106591016
-0.08948631 0.046739902 -0.00017998979 0.006969882 -0.013756743 -0.0066350657 -0.04993021 0.022583736
-0.01652529 0.049582414 -0.054663613 -0.021145955 -0.124458365 0.040316522 -0.061364282 -0.11462091
-0.026592078 -0.04404663 -0.027511716 0.040890183 -0.07590371 -0.06651005 -0.077130355 -0.04042734
-0.06263727 -0.108850524 -0.01001737 -0.036627784 -0.055848688 0.03222108 -0.01938056 -0.07180198
-0.044528704 -0.0038412353 -0.008741895 -0.024081541 0.0071895034 -0.03206538 0.114542454 0.04162552
-0.027272321 -0.10014403 -0.024172526 -0.09821387 -0.14880572 -0.07305227 -0.09321419 -0.07978312
-0.06055125 -0.0555371 -0.055337146 -0.10610295 -0.03858725 -0.14838652 -0.040521357 -0.10543631
-0.11337262 -0.04713853 -0.10055192 -0.06791191 -0.08563475 -0.0059747305 -0.033071365 -0.025101727
-0.036969755 0.018753476 -0.029694265 -0.08756476 -0.025956027 0.06406521 0.06782937 -0.052299768
-0.05853223 -0.10675456 -0.023834145 -0.020422826 -0.04266918 0.008038992 -0.016223488 0.0056140884
-0.0810077 0.0029461947 0.038560305 -0.07855831 -0.020836696 0.06572726 -0.009268977 -0.051979017
0.09498038 0.05196359 0.0019878515 0.10447672 -0.04319335 0.011332834 -0.02256367 -0.03222296
0.059322935 -0.044877037 -0.021729164 -0.01956711 -0.06561783 -0.03928697 0.0062600444 -0.09276513
-0.041236833 -0.03336215 -0.0602733 0.038567472 -0.025264893 -0.018827666 -0.04678001 0.07392881
0.041657157 -0.15555964 -0.1221232 -0.060071807 0.0035638881 0.070127316 -0.006683394 0.023734288
-0.035223216 0.075023934 -0.06721352 -0.064738065 0.069358915 -0.061019458 -0.048791673 -0.036989246
-0.06592655 0.04706098 0.025790587 0.009381556 -0.059610795 -0.08361049 -0.045240797 -0.029735113
0.09677066 0.015066062 -0.084805734 -0.013384843 0.033828147 -0.0016326684 -0.027223397 -0.046648838
-0.04328769 0.02956658 -0.035239074 0.03127818 0.06812181 -0.019187694 0.0017089227 -0.14188951
-0.026806615 0.019670738 -0.08738866 -0.058798846 -0.0625403 0.048767425 -0.12459575 -0.07198434
-0.040835522 0.0022555965 0.088702306 0.016760228 -0.016537854 -0.0319527 -0.01771893 -0.08249205
0.032639142 0.00582369 -0.07935765 0.026270151 0.01334892 -0.0031987336 -0.09943 0.00725122
-0.03898415 0.100566976 -0.032031648 -0.045395777 -0.081341825 0.03453295 0.06464564 0.017929638
-0.010143457 -0.021217234 -0.009485269 0.08304757 -0.019540101 -0.12876308 -0.05528513 -0.03328748
-0.0024534902 -0.07295803 -0.014145106 -0.06266998 -0.016219413 0.06790968 -0.118311554 -0.0764653
-0.003839187 -0.07884184 -0.054701697 -0.05934625 -0.11094415 -0.1030509 -0.061965246 0.018103214
-0.008526293 0.021680819 -0.0662528 -0.11675764 -0.045366466 -0.044123724 -0.09821339 0.018522361
-0.10182224 -0.12473695 0.1138352 5.7582933e-05 0.052905917 0.15078378 0.08873839 -0.056892656

conv2.bias f4 [20]
00000000: b6bf 82bd 8d9f 333d 1098 853d 112e 2ebd
00000010: f074 053e cf5a 743c 1377 b7bc 46a1 3c3d
00000020: 9830 c6b9 0611 f3bc d07e 963d 3301 963c
00000030: c8cc 30bd 4596 bbbd 5132 b8bc f50b a53d
00000040: e396 35bd e548 ad3d 47c6 253b 8dd9 38bd
-0.06384222 0.04385333 0.06523144 -0.0425244 0.1303289 0.014914229 -0.022395646 0.04605224
-0.00037801708 -0.029671203 0.07348406 0.018311119 -0.043164045 -0.09159521 -0.02248493 0.08058921
-0.04433335 0.08461169 0.0025295184 -0.045129348

fc1.weight f4 [50, 320]
00000000: ebb6 143d 5540 1e3d a9d5 d1ba 8a6b 823d
00000010: a07e 923d 0740 b33c e4f5 e93d bc62 463d
00000020: 2c8a 743d e116 a33b d32d c63d 6a2f 403d
00000030: 2b8f 253d 2640 293d 5aca 8dbc 229d 40bd
00000040: 04a8 21be d86c 51bd 0761 643d ca07 7c3d
00000050: 7d05 b93d 05c2 803d bcfc 24bc c003 4c3d
00000060: 1366 2b3d 6f11 8cbc 30e1 04bd c72e 443d
00000070: 5be1 6b3d 3a68 713d 1dac 0d3c 4143 02be
00000080: b012 85bd 582e d43c 09ec 833d f847 663d
00000090: 1956 9ebc 08bb a93e 708c 5e3e b604 57bc
000000a0: 9e39 f6bd 38f5 63bd c222 c33c fca0 e3bd
000000b0: 317b 913d 0c70 a43d ee86 523e ae93 5bbc
000000c0: 1812 95bd db59 40be 9624 82bd 4bf2 5cbe
000000d0: 7f16 b23d 8d5c 083c ff09 a73d c58d d0bc
000000e0: 4075 f73b 0ff0 05be 0b51 073d adf8 de3a
000000f0: 5c20 ffbd c597 92bb 1e11 183e c9d3 6fbd
00000100: d6d5 743d 3ce9 6c3c 3475 4e3d 0d3f 08bc
00000110: cd35 df3d a6eb 60bd dd5d 913d e1e8 f53d
00000120: ff12 b73d e0df e0bd 61aa e8bc dfd2 a3bd
00000130: 1d2a d33c c96e 58be 3ae3 21be a43f c83d
00000140: 8f92 bcbd e539 8fbd be05 b3bc 7e2d 33be
00000150: 6c63 be3c effa 5ebd f659 44bd 5303 323c
00000160: d59e 133e 8064 f83b 1bf1 26bd 53fc b03d
00000170: a9af 58be 49f5 00be f03b 9b3d 0670 373e
00000180: a988 31bb a6b4 a0bc 08b9 f73c 5a41 123e
00000190: f688 1a3d 6fc7 bc3c bbd5 4cbd e976 293e
000001a0: c889 11be db83 8a3d 98ae 5e3d adfb 26be
000001b0: 6076 ce3c 49b2 7ebd a539 3fbd 78e0 e5bd
000001c0: 374f 953c 0990 643d a5fc 773d 3586 54bd
000001d0: 2427 05bd 50d7 933c 49b9 01be 1b07 d8bd
000001e0: c222 5cbd a843 1abe f0ef 89bd c154 4f3d
000001f0: 5b5f dfbd 4930 8d3b 60cb 423d 4826 8fbd
00000200: c6ab a23b 42c3 f43b a29b 773e a150 9e3d
00000210: 7654 0c3e fa4e 233d 4949 563d af66 3ebe
00000220: 1d1b 4c3d 10c2 21bd e3c7 adbd f4c8 ccbd
00000230: 1db1 bc3c b43c de3c 223b 6bbd fab0 2f3c
00000240: 6e0d cdbd 8cbd 10bd 4294 3e3d dc02 96bc
00000250: fd20 01be 2598 e7bd 0fec 243d e136 3dbb
00000260: 221a 193e 706e cb3d ad89 ad3c 1e40 e539
00000270: b9b4 29be 08ba a6bd 1999 263e a9bf 903d
00000280: b026 6dbc 5304 483d d9c9 88bc feeb 00be
00000290: d6f7 30bd ae8e 4b3c 945a 22bc eeb9 bebb
000002a0: c369 95bd e1e0 873d 324d 8ebd 38ba d4bd
000002b0: a952 13bd c808 653d e437 dcbd fd8e 13be
000002c0: 57e9 22bd 1258 4bbd aced acbd 439c 45be
000002d0: f1d0 223d c101 b2bc 6151 5d3d eaa2 c1bd
000002e0: c3de 54bd 9f45 d0bd d66e 0f3e 8004 263e
000002f0: 73f0 67be 2c15 07be 7f19 8d3d 3b7e 153e
00000300: 4a32 a53c 2d72 c03b b7eb aebd c919 84bd
00000310: 28c0 443c 13d2 eebb af85 be3d 77aa 8abc
00000320: 7395 423c b635 e0bc 1ee9 503c e04c 49bd
00000330: 1c6c 32be 0a8c a43d 2749 973d ee4f b3bd
00000340: 8042 b43d 6d44 9a3c 3aa5 ce3d ca86 b83d
00000350: d19c 60bc 61b4 abbc 2923 f1bb d06c 8a3d
00000360: 5b5d 6fbc e57b b2bb de78 4c3d 1544 6e3d
00000370: 5ebb fb3d b8c0 1c3d 34c7 b13d 3092 053d
00000380: d9fc 21bd 05a2 9fbd 5a64 8b3d ebc6 093d
00000390: abae ccbc bace 113e cd6b 423d 5565 b73d
000003a0: ef1e bf3c 22d9 193d adc6 bb3d ad7e 873c
000003b0: bd67 07be c32e 94bd 82a1 ecbd 197e 77be
000003c0: a5e2 223d fdfd b63d b102 163d 6d08 f6bd
000003d0: 1d59 8c3d 65c8 7f3d 67e7 e2bd ea27 63bd
000003e0: cc07 81bc e6fc a63d 9a1c c33d 4da2 9fbd
000003f0: c505 70be 267c 26be c03d f0bd efba 5dbe
0.036307257 0.03863557 -0.001600911 0.06368168 0.07153058 0.021881117 0.11423853 0.048434004
0.059702083 0.0049770926 0.09676709 0.046920218 0.04041974 0.041320942 -0.017308403 -0.047024854
-0.15786749 -0.051129192 0.055756595 0.061530866 0.0903425 0.06287006 -0.010070022 0.049808264
0.041845392 -0.017098157 -0.032441318 0.047896173 0.057587963 0.05893729 0.008646992 -0.12720968
-0.06497705 0.025901005 0.064415045 0.05622098 -0.019328164 0.33150506 0.2173326 -0.013123682
-0.12022708 -0.05565378 0.023820285 -0.1111469 0.07103575 0.08029184 0.20559284 -0.013401909
-0.07278842 -0.18784277 -0.063546345 -0.21576802 0.08695697 0.008322847 0.081562035 -0.025458226
0.007551819 -0.13079856 0.033036273 0.0017011367 -0.12457344 -0.0044736587 0.1485028 -0.058551583
0.059774242 0.014459904 0.050404742 -0.008315814 0.108989336 -0.05491223 0.07097981 0.12007309
0.0893917 -0.10980201 -0.028401555 -0.07999205 0.025776917 -0.21136011 -0.15809336 0.097777635
-0.09207641 -0.069934644 -0.021853324 -0.17497823 0.023240767 -0.054438528 -0.047937356 0.01086505
0.14416058 0.00758034 -0.04075728 0.08641877 -0.21160759 -0.12593569 0.075797915 0.17913827
-0.0027089512 -0.01961739 0.030239597 0.14282742 0.037728272 0.023044316 -0.050008517 0.16549267
-0.14212716 0.06763431 0.054365724 -0.16306944 0.02520293 -0.062181745 -0.046685833 -0.11224455
0.01822625 0.055801425 0.060543675 -0.051885802 -0.03250803 0.018047005 -0.12668337 -0.1054823
-0.053744085 -0.15064871 -0.067352176 0.050617937 -0.109068595 0.0043087346 0.047557235 -0.069897234
0.0049643246 0.0074695656 0.24180463 0.077302225 0.13704094 0.03987024 0.052315984 -0.18593858
0.049830545 -0.039491713 -0.08485391 -0.09999266 0.023033673 0.027128555 -0.05742944 0.010723347
-0.10012327 -0.035337016 0.04652811 -0.01831191 -0.1261024 -0.11308316 0.040264186 -0.0028871822
0.14951375 0.09933174 0.021183813 0.00043726055 -0.16572846 -0.081409514 0.1626934 0.07067806
-0.014474556 0.04883225 -0.016697811 -0.12590024 -0.043205105 0.012424154 -0.009909291 -0.0058205044
-0.07295563 0.06634689 -0.069483176 -0.10387081 -0.035967503 0.055916578 -0.10752848 -0.14410014
-0.03977331 -0.049644537 -0.0844377 -0.1929789 0.039750043 -0.021729352 0.054032687 -0.094549015
-0.051970255 -0.10169529 0.14007124 0.16212654 -0.22650318 -0.1319167 0.068896286 0.14598934
0.020165581 0.005872986 -0.08541053 -0.06450231 0.012008704 -0.0072882264 0.09302842 -0.016926987
0.011876452 -0.027369361 0.012750892 -0.04914558 -0.17424053 0.08034523 0.073869996 -0.0875548
0.08801746 0.018831456 0.10090108 0.09010084 -0.013709263 -0.020960035 -0.0073589277 0.067590356
-0.01460966 -0.0054468983 0.049919955 0.058170397 0.12291597 0.03826973 0.08680573 0.03261012
-0.039547775 -0.07794575 0.0680625 0.03363697 -0.024985632 0.14239016 0.047466088 0.089548744
0.02333018 0.03756059 0.09168754 0.016539896 -0.13223167 -0.072354816 -0.11554243 -0.24169196
0.039766926 0.08935163 0.03662366 -0.12013326 0.068529345 0.06244697 -0.11079293 -0.055457987
-0.015750788 0.08153705 0.0952694 -0.07794628 -0.23439701 -0.16258296 -0.11730528 -0.21653341

fc1.bias f4 [50]
00000000: 12aa bb3e e390 153f 0169 eb3c 1576 6b3c
00000010: 6530 553e c424 473e fa78 863e 7f3a 243e
00000020: 4ca9 1e3e d046 d93e 6137 d13e d8eb 28be
00000030: 6f02 023e 797d a53d f28d 303e 11f6 3b3c
00000040: 0ef4 81bd 1dc1 223e ebc9 4b3e 895b debd
00000050: 3300 ebbd 44f3 373d 1945 293e 99f7 3cbe
00000060: 8115 173e 66a2 16bd 89a4 bebc 2d8e d83e
00000070: d296 59bc f7d5 cc3e 7993 373d d107 903e
00000080: 760b cf3e f5bf e83e 687f 25be 229e fb3d
00000090: a650 0f3e 49ea f63e 63f5 423c 2bd5 5b3e
000000a0: 06ba 2b3f 4330 623e c6fa 2c3e 9555 1d3e
000000b0: df95 223e ad88 673e 7ecf bcbd 03c9 a4bd
000000c0: b7ff 333e 39ac 2b3e
0.3665319 0.58424205 0.028736593 0.014371415 0.20819242 0.19447619 0.26264173 0.1603794
0.15494269 0.42436838 0.40862563 -0.16496217 0.12696241 0.08080573 0.17241648 0.011472241
-0.06345378 0.1589398 0.19901244 -0.10857303 -0.114746474 0.04490973 0.16530265 -0.18453826
0.14754297 -0.03677597 -0.023271816 0.42295972 -0.013280587 0.40006992 0.044818375 0.28130963
0.40438432 0.45458952 -0.16161883 0.12286021 0.13995609 0.4822562 0.011899325 0.21468036
0.67080724 0.22088723 0.16892537 0.15364678 0.15877484 0.22610731 -0.092192635 -0.080461524
0.17578016 0.16764916

fc2.weight f4 [10, 50]
00000000: eb65 d9bd 0a00 913e 82b8 a33c c27c a73b
00000010: cd58 303e 689a 1ebe 8a46 e5bd 915f ffbd
00000020: b330 043e adda 02be 9bf7 33be 7ee4 88be
00000030: 423e f3bb e2d4 afbd b3cf 073e 1b41 a3bd
00000040: c086 45be 6d28 c7bd f74b 5a3d 8965 6fbc
00000050: 6fc8 f03d b236 253e 0f3d 453a d7fc 47be
00000060: dfdb bf3d c850 083e bff5 f53d a4fe dd3d
00000070: 2778 1fbe c7e6 99bc 1283 31bd cbc3 343e
00000080: 2fb4 6b3a cfa9 4ebd d451 8bbd dc20 4d3e
00000090: faf2 d0ba 0b1c 90bd 6f80 db3d a897 c2bd
000000a0: d2e8 7cbe df54 57be e477 a6bd a903 f3bd
000000b0: cd26 66bd 7a38 6bbd 4544 2a3d 5230 bdbe
000000c0: 534d 073e 0346 05be f9d6 b23d 0633 273e
000000d0: db21 63be af4b c1be 99ff a73b 4225 273e
000000e0: 5f24 d93d 63db db3c a59d 10be 9ec1 1c3e
000000f0: fd0a 113e 0d61 38be 0200 68be 9962 5bbe
00000100: 47c5 a0bc 29b1 64bd bd58 16be f0d2 b23d
00000110: c5a1 0a3d 7d16 16be 9f17 52be b7c4 d13d
00000120: 977f f33d 8bb5 51be 2198 343d bc8e 2fbe
00000130: 5ab5 2cbe 6cff e83d 04f2 b5bd 0854 0e3e
00000140: 9c86 68be c1c8 eb3c 3f94 093e 7f0e 8b3d
00000150: 5557 48be b6f2 b6bd cb8a 78be 5d8e 243e
00000160: 5da5 c63c 33b5 cc3d 469c 4a3e f77e 003e
00000170: ea4a 5f3b efd3 c9be bcf1 fe3d 0c43 af3c
00000180: d152 853b a585 05be eff2 51bd 2aed 163e
00000190: 0a0f 56bb 99a3 6abe 9bba 8f3c 2008 173e
000001a0: 6854 e2bd 6ffd 673d 7775 b93d a8fd f4bd
000001b0: 7eae 91be a6c4 c4be 95e6 b1bc a282 f8ba
000001c0: 35bf c4bd aabd d7ba 320c ac3c d7af 063e
000001d0: 17e5 00bd 6acb fe3d 5932 38be 8aae 9ebd
000001e0: f086 3e3e 137b 983c 9638 e83d c777 59be
000001f0: 8d22 edbd d287 5e3d 990a 8e3c 3f07 a13d
00000200: efb8 51be 8940 2a3e bb52 0bbe 273e 583d
00000210: c3f3 4cbe f8c7 57be ea00 57bd 669c e93d
00000220: eb48 4a3e b811 59bd 7080 8f3d ea33 f83d
00000230: faec 31be 94c2 333e 853e 27be beee 803d
00000240: 35dd dcbd 3639 573e 434d d4bc 4668 f73c
00000250: 9716 fbbd d5fb 4ebd 2fbc dfbd bbd7 fdbd
00000260: bcf8 623c d3e6 313d b50f 203d 4e85 4a3d
00000270: e9c0 103d 36eb 11be 3f48 22bd 2560 8ebd
00000280: b92a 58be 75f7 be3d 4bbe 113d de93 92bd
00000290: 84dd 94bd 5341 5f3d 4fd3 d8bd 778a b73d
000002a0: 6241 eb3a 8eff a23d 1a6c 613d 6bf9 2cbe
000002b0: 5574 b83d 264c 063d fdcf d3bd 9980 183e
000002c0: 6654 1bbe 275f f23d 2409 213e f98b 223e
000002d0: 8b26 053e 8c84 2abe 2c6c f33d 4ebf 20be
000002e0: 9907 01be d69c 20be a0df 15be 5f6c 4cbe
000002f0: c87c 283c 85b5 87be 20e7 bebe 2720 563b
00000300: 3c95 323e 435d 61be e0d2 923d 3003 2bbe
00000310: 56b2 243e d400 0b3e 9538 33bd 6bcc 213e
00000320: 2021 c5bc 8562 89be 4c2d 963d 825c 0d3d
00000330: d55f e03d b7f2 443d 1b6f 483e 5408 4d3d
00000340: b0f3 013d ea5e f4bd bbb8 8c3d 09ec 813d
00000350: d2f2 57be d274 053e 02c6 0d3e 0494 5fbe
00000360: 3321 b9bd 8299 123e 4693 dbbd ae10 ba3d
00000370: 875e 15be d9d6 14be e11f d0bc 0e74 cf3d
00000380: 9e14 833d 60e3 6bbe 6bc7 db3c 1641 65be
00000390: c50d f33d 2358 11be 95e8 693c e3c8 c7bb
000003a0: 5f39 3bbe db1f b1bd d86b 21bd 97a9 223e
000003b0: 4e0f 053e 411e f83d a9f1 f03c cfe4 2d3e
000003c0: 8393 5b3e cbb1 82be 4c2d 2ebe 7c5f 08bc
000003d0: fe17 523d ae2c 9d3c bab9 a0be 900a b8bc
000003e0: 50b6 7fbd ca29 34be e09d 43be 5e47 15be
000003f0: 243d 19be 959e ba3d de50 00be 522c 583d
-0.106151424 0.28320342 0.019985441 0.005111308 0.17221375 -0.15488589 -0.11195095 -0.124694
0.12909202 -0.1277873 -0.17574923 -0.26736826 -0.007423193 -0.08585526 0.13262825 -0.07971402
-0.19289684 -0.097245075 0.053295102 -0.01461161 0.1175698 0.16134146 0.0007524052 -0.19530044
0.09368109 0.13312066 0.12009763 0.108395845 -0.15573178 -0.018786801 -0.04333789 0.17652814
0.0008991388 -0.05045491 -0.06802717 0.20032066 -0.0015941553 -0.07036599 0.10717856 -0.095015824
-0.24698189 -0.2102847 -0.08128336 -0.118659325 -0.056189347 -0.057426907 0.041569013 -0.36950928
0.1321309 -0.13014989 0.08732409 0.16328058 -0.22180884 -0.37753054 0.005126905 0.16322806
0.1060264 0.02683801 -0.14122637 0.15308234 0.14164348 -0.18005772 -0.22656253 -0.21424331
-0.01962532 -0.055833016 -0.14682288 0.087316394 0.03384568 -0.14657016 -0.20516823 0.102425985
0.1188957 -0.2047941 0.044090394 -0.17144293 -0.16866055 0.11376843 -0.088840514 0.13899243
-0.227076 0.02878225 0.13435458 0.06789874 -0.19564565 -0.08933012 -0.24271695 0.16069932
0.024248773 0.099954985 0.19786176 0.12548433 0.0034071752 -0.39419505 0.12448451 0.021394275
0.0040687104 -0.13039263 -0.05125707 0.14738908 -0.0032662773 -0.2291397 0.017545035 0.14749193
-0.110512555 0.056638177 0.09055608 -0.119624436 -0.2845344 -0.3843128 -0.021716395 -0.001895983
-0.09606782 -0.0016459723 0.021001909 0.13153015 -0.031468477 0.12441142 -0.17987956 -0.077481344
0.18606162 0.018613374 0.11338918 -0.21237098 -0.11578856 0.054328747 0.017339038 0.0786271
-0.20480703 0.1662618 -0.13605778 0.052793648 -0.20014863 -0.21072376 -0.052491106 0.11406784
0.19754378 -0.052995414 0.070069194 0.12119277 -0.17375556 0.17554694 -0.16332443 0.062955365
-0.107843794 0.21017918 -0.025915748 0.030201089 -0.12260168 -0.050533134 -0.10924565 -0.12394663
0.013853248 0.04343302 0.03907748 0.049443536 0.035340223 -0.14249882 -0.03961968 -0.06951932
-0.21110047 0.093245424 0.03558187 -0.0715711 -0.07268813 0.054505657 -0.10587179 0.08961957
0.0017948563 0.079588994 0.055034734 -0.1689202 0.090065636 0.032787465 -0.10342405 0.14892806
-0.15168914 0.11834555 0.15726143 0.15873708 0.13002984 -0.16652125 0.118858665 -0.15697977
-0.12600555 -0.15684828 -0.14636087 -0.19963215 0.010283656 -0.26505676 -0.3728571 0.0032672973
0.17439741 -0.22008233 0.071691275 -0.16700435 0.16083655 0.13574535 -0.043755133 0.15800636
-0.024063647 -0.26832977 0.073328584 0.03451205 0.109557785 0.048083033 0.19573633 0.05005677
0.03172654 -0.11932166 0.06871172 0.06343848 -0.21088722 0.13032845 0.13845065 -0.21833807
-0.090395354 0.14316371 -0.107214496 0.09085213 -0.1458684 -0.14535083 -0.025405826 0.101295575
0.06400417 -0.23035955 0.026828488 -0.2238811 0.11867861 -0.14193778 0.014276643 -0.0060969456
-0.18283604 -0.08648654 -0.03940949 0.15885006 0.1299412 0.121151455 0.029412108 0.16981815
0.2144299 -0.2552627 -0.17009467 -0.0083235465 0.051292412 0.019186344 -0.31391698 -0.022465974
-0.062429726 -0.17594066 -0.19103193 -0.14578006 -0.1496473 0.09112278 -0.12530848 0.052776642

fc2.bias f4 [10]
00000000: 0f91 aa3d 3dc3 e53e a302 c9bd 95bc 10be
00000010: 7ea0 0fbe 30e7 6fbd 35a9 d9bb 3153 d43d
00000020: 413f d2bd b041 87bd
0.08328449 0.44875517 -0.09814956 -0.14134438 -0.14026067 -0.058570087 -0.0066424855 0.1036743
-0.10265971 -0.06604326
