intermediate/RNN.ckpt (torch, 859384 bytes, 10 tensors)

lstm.weight_ih_l0 f4 [512, 28]
00000000: 9e00 503e 5f52 d0bd 6a5b eabb 5699 50bd
00000010: 24cd b3bc 4642 4abd a37e 0ebf e3af 42bf
00000020: ef28 1bbf db78 cbbe 49eb abbe 7837 653d
00000030: 7260 323e 8782 853e 23b2 463b 5ff5 733c
00000040: 45d7 3f3e 40ea 0a3e 9087 6dbd d290 09be
00000050: d7fa 0abe 7617 efbd 1a2a 42bd 9396 473e
00000060: d776 2e38 0ae4 c0bd e657 95be 9dd0 f0be
00000070: 77fa b03e 00c1 8bbe a0ae 46be 1f5e 36be
00000080: c17c 34bd 9e53 6ebd 0465 debd ae9b afbe
00000090: 791f d9be d827 c6be 6dcf 90be f382 79be
000000a0: 6575 6a3d b622 823e e534 173d 4484 d9bd
000000b0: 3ed3 41be d276 8dbe 21be 40be 1f32 b7be
000000c0: 610c a3be 79ba 21be 2de3 31be e181 efbd
000000d0: 9cb6 ecbe ccd0 f8be fdaf d5be bcba 43be
000000e0: fe74 75be 9bb5 043f acbb 2fbe 956c 883e
000000f0: d091 393f e2e1 053f a85f 283f c070 a23e
00000100: 45bd 653d 749e 28bd b2c4 2fbe 1a1a 63be
00000110: e41b 57be ce0d 02be 7d64 47bd 20dd 10bc
00000120: c984 793d 708e 1b3d 19d6 113e de36 283e
00000130: c0c6 e33e 9d76 c23e c058 703e 8465 af3e
00000140: 4264 df3e 1923 aabe 3cd7 ccbe 9f94 bf3e
00000150: b592 a4be 5c8b e1be 8da0 df3d 3144 57bd
00000160: 4e6b 4abe cfd9 96be c93e 00be bdcc dc3d
00000170: 7348 793e a283 6f3d 5689 2a3e 8e32 123e
00000180: 1cc4 9e3d ee6c 233e 173d df3e a60c f83e
00000190: 43ba 1f3f f85c 093f d12b fc3e fe0b b43e
000001a0: b70c 953e a280 05bb 77fb d6bd 0313 173e
000001b0: c4d4 f23d 5bef 43be 3b6f b5be 3489 f93c
000001c0: c305 843e 6c8b 9e3d 8398 7c3c 6bbc cabd
000001d0: aac0 73be 4024 42be e7bb 15be b23d 6abe
000001e0: 2fc4 2ebe 1ddf 80be 456b 22be 04a4 46be
000001f0: 6750 12be 8baa 16be 8572 b3be fc84 d5be
00000200: 6b14 dfbe 2a7c ecbe 3886 82be b6ad b2be
00000210: 5416 3fbe 828e c3bd dd9c 91be fd4b 30be
00000220: 11f4 fabd 3d5b f0bd 474c 1b3e 775b 57be
00000230: 680b 783e 77f6 5ebd 08ee 0abe 0608 673e
00000240: 7da8 7c3c 1357 86be 02e8 8dbe 1bf4 51be
00000250: bf05 2ebe 20f0 8cbe a8fd 0ebf 5b73 7cbe
00000260: 47cc 85be 5d36 94be ba35 99be 3607 b1be
00000270: 47c8 d5be 8751 1ebf c9a3 b5be d066 f1be
00000280: 0700 1cbe 4c6c a43d 7765 8cbc 1b0b a3bc
00000290: 474d d5bd ed17 1ebd ac33 0ebd 094a 9abe
000002a0: 2223 9f3e 60b6 9cbe c434 d03d 3487 29be
000002b0: c68c d3be 6de2 f7bd ff7a 08bf 1b5c 13bf
000002c0: f02b 00bf 3316 d5be 7338 23bd 79ea ccbd
000002d0: 2c5b 7e3e 8b79 933e 6d13 3d3e 151a 7c3d
000002e0: 11d3 38be 8ae0 4ebe dba9 b9bd 2597 23be
000002f0: 52b3 e1be f560 c4be 1ef4 a6be 97e0 4b3d
00000300: d0e5 a1bd d03b 5cbe 6383 c73e d8cc f13e
00000310: ff15 12be 5628 6a3e 0991 c2bd 1dd9 443d
00000320: c8ba ed3e cea3 263e 2a09 07bd cc8d b93d
00000330: bb77 593e ef65 4d3e 5ed2 663d 6703 6abe
00000340: 1e17 e63d 3b91 50bc caf0 82be 4970 f9be
00000350: f7a2 1dbf e83b 78be 86da 8c3d 2e33 ffbb
00000360: c1f1 9a3d 6257 df3d 64fe 573d 1475 7f3e
00000370: 8d79 633e da9c 9eba ddcf 673e dee6 f6bd
00000380: 0e9a e93c a300 debd 4ad8 9abe 218a a8bd
00000390: 6084 df3d c94b 253d b223 96be 86a4 85bd
000003a0: 14fc e43d 45ef dabd 78ec 8abe c37d 76be
000003b0: 1752 07be d352 93bd a601 19be e807 b8be
000003c0: 8f2c acbe 295b 57be 8393 823c 773e 87be
000003d0: 7b45 d1be 706a 1abe 323a 56be 0ba3 cebe
000003e0: d6b5 09bf 3bf8 95be 897c 49bd 4956 183e
000003f0: f838 393d 138d c0be e12f e9be 9ff2 e83b
0.20312735 -0.10171961 -0.0071520107 -0.050927483 -0.021948405 -0.04937961 -0.5566198 -0.7604963
-0.60609335 -0.39740643 -0.33577946 0.055961102 0.17419603 0.26076147 0.003031858 0.014890044
0.18734463 0.13565922 -0.05799061 -0.13434151 -0.1357225 -0.11674397 -0.047403432 0.19491033
4.159551e-05 -0.09418495 -0.29168624 -0.4703416 0.3456609 -0.27295685 -0.19402552 -0.17809342
-0.044064287 -0.058185212 -0.10859111 -0.34298462 -0.42406824 -0.38702273 -0.28283253 -0.2436636
0.057240862 0.25417107 0.03691568 -0.10620931 -0.18928239 -0.27629715 -0.18822528 -0.35780427
-0.31845382 -0.1579379 -0.17371817 -0.11694694 -0.4623307 -0.485968 -0.4173583 -0.19114202
-0.2397041 0.5183961 -0.17161435 0.26645342 0.7248812 0.52297795 0.6577096 0.31726646
0.056088705 -0.041166738 -0.17164877 -0.22177926 -0.21006733 -0.12700579 -0.048679817 -0.008841783
0.06091765 0.037977636 0.14241828 0.1642718 0.44487572 0.3798112 0.23471355 0.34257138
0.43631178 -0.33229902 -0.4000796 0.37418076 -0.3214318 -0.44051635 0.109192945 -0.052555267
-0.19767496 -0.2946305 -0.1252395 0.10781238 0.24344043 0.058475144 0.16653952 0.14277098
0.07752249 0.15959522 0.43601295 0.4844715 0.6239359 0.53657484 0.4925218 0.351654
0.29111263 -0.002037086 -0.10497182 0.14753346 0.11856988 -0.19134276 -0.35436425 0.030460931
0.25785646 0.07741436 0.015417221 -0.09899219 -0.23803964 -0.18959141 -0.1462246 -0.22875097
-0.17067026 -0.25170222 -0.15861233 -0.19398504 -0.14288484 -0.14713494 -0.3504831 -0.41703022
-0.43570265 -0.4618848 -0.25493026 -0.34898156 -0.18660861 -0.095486656 -0.2843999 -0.17216487
-0.12253583 -0.11736152 0.15165816 -0.21030985 0.24223101 -0.054434266 -0.13567364 0.22561654
0.01542103 -0.26238307 -0.2771607 -0.20503275 -0.1699438 -0.2752695 -0.558558 -0.2465338
-0.26132414 -0.28947726 -0.29923803 -0.34575814 -0.41754362 -0.6184315 -0.3547652 -0.47148752
-0.15234385 0.080284685 -0.017138226 -0.019902756 -0.1041513 -0.038597036 -0.034717247 -0.3013461
0.31081492 -0.3060789 0.10166314 -0.16555482 -0.4131834 -0.12103734 -0.5331268 -0.57562417
-0.50067043 -0.416185 -0.039848756 -0.100056596 0.24839467 0.28803667 0.18464442 0.06154831
-0.18049265 -0.20202842 -0.090656005 -0.15975626 -0.44082123 -0.38355222 -0.32608122 0.049774732
-0.079051614 -0.21507192 0.38967428 0.47226596 -0.14266203 0.2286695 -0.095003195 0.048058618
0.46431565 0.16273424 -0.032967724 0.09060249 0.2123708 0.20058416 0.056352966 -0.2285286
0.11234878 -0.012729938 -0.25574332 -0.4871848 -0.6157679 -0.24241602 0.068776175 -0.0077880835
0.07565642 0.10905339 0.05273284 0.24947006 0.22214337 -0.0012101189 0.22637887 -0.12055753
0.028515842 -0.10839965 -0.3024314 -0.08229471 0.109139204 0.040355477 -0.29324108 -0.06525521
0.111808926 -0.10690168 -0.27133536 -0.24071412 -0.13214909 -0.07193532 -0.14942035 -0.35943532
-0.33627746 -0.21030869 0.01593948 -0.26414844 -0.40873322 -0.15079665 -0.20920637 -0.40358767
-0.53793085 -0.29290947 -0.04919103 0.14876665 0.045220345 -0.3760763 -0.4554434 0.007109001

lstm.weight_hh_l0 f4 [512, 128]
00000000: 462d 293d 2363 05be a298 dbbd 0c7c 9fbe
00000010: 2869 d3bd d860 603e a22c db3c cc1e ab3d
00000020: 4b21 4e3d 97fb a3be fa3d 973d 6c5c ddbd
00000030: 2b6f aebd 2d8f 9cbe 6dce d0be 1fde 94bd
00000040: eab2 e3bd 679e 1b3e 2c08 4ebe 19ef 4f3e
00000050: fe79 8b3e f0a2 22be 8db5 d9bc a0ac ab3d
00000060: 58c8 56be 5579 933d 3c51 2bbd 3197 c93e
00000070: c68c b2bb f03b 9e3c 62a3 523e 0b02 9b3d
00000080: 2ef8 273f f5ad d8be 19c2 51bc 1970 7bbd
00000090: 7ded bcbe 4cc5 753d 41a8 91bd 5516 013e
000000a0: a185 263e c58a 2e3e de8b 623e b334 673e
000000b0: 9f3e a5bd aa0b 673e 9293 bbbe 39ee febe
000000c0: d35f 3e3e 8998 403e a7fd c93c 975a 033d
000000d0: fa02 49bd 9a19 e03d 26a7 b63c 17a3 5e3e
000000e0: c172 94be b066 473e 1e5f 49bd b299 47be
000000f0: 76d8 96bd 60f0 19be f674 773d f1c0 8e3e
00000100: 0ce9 28bf 22d5 e73e bb6d 12be 0c33 a53d
00000110: 276f 163e 1512 363e ce17 34be a2b5 6d3c
00000120: 077e 96bd fe6a 37be 72e8 1dbd eacb 623e
00000130: 86ae b53e 749e a73e 6697 07bf 5414 a93e
00000140: c5c0 edbd 59c4 3cbd b73a d23a 251f 643d
00000150: bc30 82be 0b32 b8be a172 b73d 0f41 f1bd
00000160: 6c68 a2bd 53e4 af3e f5b4 cd3e 718c be3c
00000170: 3110 16be f27f 9f3c d414 41bc bbc0 b33e
00000180: 9b33 00bd f271 1a3e 2537 ae3a 11f6 023e
00000190: 6fa3 f13c fc97 1e3e d14b b83d 5d8f febd
000001a0: b454 3bbf 977c 67bd 8077 da3e 0c94 88bd
000001b0: 4cac 93bd 4c5f dabe 6d92 9a3e 9ab6 633e
000001c0: 5749 a83e 7beb 853e e479 50bd 06c9 ebbe
000001d0: 9c73 12be 1f40 98be 8f04 50be 106d 443d
000001e0: d7f7 2e3e 81b2 03bf 437a 0f3e 4944 c2bd
000001f0: 3e74 50be fe0e 74be 0320 6bbc 6e6b 9abc
00000200: b84c 8cbd ee0f 15be 79a6 bebd 72a1 9bbd
00000210: 77fa ed3d 60ed 153c 4e7a b9bd 1ba9 233e
00000220: 60ba 333e c40f d7bd 2c17 47be d4f5 d1bd
00000230: ae09 25be f1ff 233e ec1d f63c 76dc bc3d
00000240: e538 00ba ee33 e63e 3e48 28bc f85f 263e
00000250: 7a95 3e3e 969f e83d 5d84 3a3e abf6 a3bc
00000260: 94e6 f9be b866 4abe 7479 a23e 9be1 9bbe
00000270: f8fd ce3e b2ed 013e c5cc d63d 40da 31bd
00000280: 9935 2a3e 1da7 2dbe 05f5 4cbe b546 8ebe
00000290: d365 1a3e 50a1 ddbd 69d0 33be e8b7 603e
000002a0: 1f12 933d ebd7 a2bd ddbb 9fbd f851 713d
000002b0: 01e2 be3c 0185 68bd 6410 01bc e309 a5bc
000002c0: 5e53 a73e a5d1 443e 20ac ffbd bf08 873d
000002d0: 899b 4dbd 4a66 7f3e 63e8 e53d 09fb 0cbe
000002e0: f285 dc3c 19d1 443e 7fb3 b7bd 690c 5c3e
000002f0: 493e dc3d 20b6 65be a435 cf3d a8fd ae3e
00000300: 8248 f4be dc41 c6bd c6fa 78bd e4fa e33c
00000310: 0def 67be 413d df3d 1c68 843e d905 18be
00000320: 0f27 2fbe 1bcc c6bd b2e0 f3be 7552 063d
00000330: 0ade 0a3e ef83 e93d 6ea9 42be 86c5 133f
00000340: fa2e 5cbe 7311 083e fe4d 733a 5819 89be
00000350: 06ef 8ebd a2de 8a3d dd3a 9cbe 9ba8 c33d
00000360: afc9 a83b e3e4 b53e 5533 1cbd bc0a 40be
00000370: d261 0e3e ec23 bd3c 631d b13d 36e1 073e
00000380: 767b 6abe d0df 073e 8e9a 9dbd bb23 92be
00000390: 60e4 9e3e bf10 35be e74a 083f 7d03 7dbe
000003a0: a178 bdbe 644a b83d 1ba8 fdbe ec43 4c3e
000003b0: e019 c63e cbce debd 1f95 cf3e c5e7 90be
000003c0: bce6 3f3e 118b 923e a41b d5bd 529c 0abe
000003d0: 8a68 1abc 98a4 50be 659c 80be 51c2 2bbe
000003e0: 3c34 543d 0f48 84bd 782a 92bd 2c66 d23d
000003f0: bc93 31be fde7 02be 1b41 edbd 6046 853e
0.04130294 -0.13026099 -0.10722472 -0.31149328 -0.10322791 0.21911943 0.026754681 0.083554834
0.05032472 -0.32027885 0.07384868 -0.10808644 -0.08517297 -0.30577984 -0.4078249 -0.07268929
-0.111181095 0.15197144 -0.20120305 0.20306052 0.2724151 -0.15882468 -0.026575828 0.08382535
-0.20974863 0.072008766 -0.041825518 0.39373162 -0.0054489104 0.01931569 0.20570138 0.07568749
0.6561307 -0.4232022 -0.012802624 -0.0613862 -0.3689994 0.06000261 -0.0711217 0.12606175
0.16261913 0.17045124 0.22123668 0.22578697 -0.08068585 0.22563043 -0.36636025 -0.49791124
0.18591242 0.18808188 0.024657084 0.032068815 -0.049075104 0.10942383 0.0222965 0.21741901
-0.289938 0.19472766 -0.049162976 -0.19492224 -0.073655054 -0.15033102 0.060414277 0.27881578
-0.659806 0.45279795 -0.14299671 0.08066377 0.14690839 0.17780335 -0.17587206 0.014508637
-0.073482566 -0.17911908 -0.038551755 0.221481 0.35484713 0.32738078 -0.5296539 0.33023322
-0.116090335 -0.04608569 0.0016039227 0.055693764 -0.25427806 -0.3597568 0.089574106 -0.11779987
-0.07930073 0.34353885 0.40177122 0.023260327 -0.14654614 0.019470189 -0.011784751 0.3510798
-0.031299215 0.15082529 0.0013291581 0.1278918 0.029496877 0.15487665 0.08998836 -0.12429688
-0.7317612 -0.056515303 0.42669296 -0.06668863 -0.072105974 -0.4265083 0.3018984 0.22237626
0.32868454 0.2615622 -0.050897494 -0.46051806 -0.14301914 -0.2973642 -0.20314239 0.047955573
0.17086731 -0.5144425 0.14011483 -0.094856806 -0.20356843 -0.23833844 -0.014350894 -0.018850055
-0.068505704 -0.14556858 -0.09309096 -0.075991526 0.11620038 0.009150833 -0.09056531 0.15982477
0.17551565 -0.10501054 -0.19442433 -0.10251966 -0.16116974 0.16015603 0.030043565 0.09221737
-0.00048912904 0.44961494 -0.01027113 0.16247547 0.18611708 0.113585636 0.18214555 -0.020015081
-0.4880873 -0.19765747 0.31733286 -0.3044556 0.40428138 0.1268833 0.104882754 -0.04342103
0.16622008 -0.1695828 -0.20015343 -0.2778832 0.15077905 -0.108217835 -0.17559971 0.21945155
0.07181191 -0.07951339 -0.07799504 0.058916062 0.023301126 -0.056767467 -0.007877443 -0.020146316
0.32680792 0.19220598 -0.12484002 0.06593465 -0.050197158 0.24941364 0.11225965 -0.13767637
0.026919339 0.1922039 -0.08969783 0.21489109 0.107540675 -0.22432756 0.10117653 0.341779
-0.4771157 -0.096805304 -0.06078603 0.027829595 -0.22649784 0.10900355 0.2586068 -0.1484598
-0.17104743 -0.09706899 -0.47632366 0.03279348 0.13561264 0.114021175 -0.19009945 0.5772327
-0.21502295 0.13287906 0.0009281336 -0.26777148 -0.06979184 0.06780745 -0.3051366 0.09553643
0.0051509957 0.3552619 -0.03813489 -0.18754095 0.13904503 0.023088418 0.08648183 0.13269505
-0.22898659 0.13268971 -0.076954946 -0.28542885 0.3103361 -0.1768217 0.5323929 -0.24708362
-0.37006095 0.08998564 -0.49542317 0.19947785 0.38691616 -0.108792864 0.40543458 -0.28301826
0.18740362 0.28621724 -0.10405663 -0.13536194 -0.009424338 -0.20375288 -0.2511932 -0.16773345
0.051807627 -0.064590566 -0.071370065 0.10273394 -0.17341512 -0.12783809 -0.115846835 0.26030254

lstm.bias_ih_l0 f4 [512]
00000000: 596d 31be 743f 63be 4518 b7be 4c73 843d
00000010: 480e febe 03fa dcbe b203 67be 65cc e2be
00000020: f7c7 3cbe 401b 62be b8f5 10be 75cb 73be
00000030: 355f c8be c587 5abd 1fa3 56be 04be 96be
00000040: 6de1 01bf e3e7 02be c647 33be 0078 54be
00000050: a3e7 b6be a657 e3be 0b39 80be b53e c4be
00000060: 1372 5abe 96e1 f4be 6668 bcbe 9ead 8dbe
00000070: 0a2f c5be 15f4 93be 972c a9be b0b7 2fbe
00000080: a3ac 17be 032a aabd 5e79 68be 79b9 11be
00000090: 3e7c 35bd ef84 dbbe ae11 e7bc 2348 87be
000000a0: 0d92 e3be 3b0e 91bd c265 23be 9ff4 53be
000000b0: 10b9 04bf 147f 83be d6fe 8fbd 32e6 10bd
000000c0: 4424 81be c7bd 1ebe d685 90be 0e2c dfbe
000000d0: df22 e7be 9bcd 813d 9e86 afbe 3d41 9dbe
000000e0: 4e0e aabe f2c7 3fbe 1821 07bf fe83 7dbe
000000f0: e236 52be 16a4 28be 9071 65be 4e37 a9be
00000100: 7587 953d 4a1a 43be 230d 72be 8c0d d8be
00000110: 96a5 8fbe ab0e 2abf df7a 91be e09f 8ebe
00000120: ad77 a4be 24ff bdbe 1343 52be 50f5 edbe
00000130: b270 81be e3c3 aebe e871 52be 528e 12bd
00000140: 90be edbd ae4c c1bd 8896 6ebe 66ba 8fbe
00000150: 3e4e c0bd 20bc 57be e332 99be 9c1f d8be
00000160: 928c 1ebe f575 e4be 3510 e3be 278a bfbe
00000170: b2f4 bfbe 1289 0cbb 4165 97be 51af cbbe
00000180: f8dd 35be 5de6 ecbe 147c dfbe aaf2 febd
00000190: 02bc 2cbe 438c bdbe ecc8 0c3e 8500 26be
000001a0: 1027 dcbe fbbe 3fbe ebab 70bc 2dcd febe
000001b0: 2ab3 213d 4ff1 80be 92b6 37be 8cac 43be
000001c0: 0570 f2be 8ad1 edbe e7e2 0abe 887f 52be
000001d0: 5967 a6be 5015 28be b8cf 92be 6752 a5be
000001e0: 46cf 53be 683d 46bd 5735 f3be a246 1fbe
000001f0: 26fc 6fbe 6485 2bbf acfa aebe 6e53 55be
00000200: f019 f43d 4375 d5bc 79ea 47bc 8cac a8bd
00000210: 94e9 e0be e10f b2be 8b7d 56be 2bea b2be
00000220: d474 22bc 6210 60be c2f6 dc3c 0f26 1ebe
00000230: e915 54bd e24c adbd e11d 9dbe c426 cfbd
00000240: f6e9 d1be 28f2 7e3d bd3f bebd ecf8 a7be
00000250: 917e ba3c 1008 06be b723 f2bd 8027 78bd
00000260: d53a 163e a856 31be 201b d7be aa24 093e
00000270: 5703 1e3d af18 e2be 8375 f7be adb8 2abe
00000280: be57 8dbe acbd 523e 67a2 be3e 7d34 cabe
00000290: 7d7e a33b 961e 69be 04e4 a7be 6fc6 9cbe
000002a0: b85c 93be 375f 0c3d 8a8d c43e 5afd aabe
000002b0: 0fe1 b2be 4c00 e83d f1c9 8dbb 61d0 8cbe
000002c0: 611c 19be 82bd cdbc 0730 df3d ebcc 333d
000002d0: 8bb0 fbbe 216f 823c 1b0d 21be e637 7fbe
000002e0: 087d a33b 9fcd 29be 6abb 8abe 717a 01be
000002f0: ad8c 8ebe f1d0 213d 1dde 4abe f237 3cbe
00000300: b1b4 c8bd b69c ce3d 6253 38be f2c6 02be
00000310: 0b18 d5be dcbe d83c 8210 b33d 35a1 d3bd
00000320: b5a8 04be 34c8 4bbe 7a89 a2bd 2dfd 5dbe
00000330: 937d bbbd cd75 8abe 609e 6bbe ff08 88bd
00000340: 9009 c3bd a641 d3bd 5e70 b73d 6254 083e
00000350: f2a4 eabe 109f 013d 6ce7 05be c334 cfbe
00000360: 428b 963d ba2d 18be 9914 5dbe f214 8dbd
00000370: 854e 1dbe a6b4 75be 962b 88be c265 893e
00000380: 95e6 0fbe 422f 21be d43b bdbd 7d45 ef3d
00000390: bdf3 02be 70d1 2fbe 4d33 83bd 919b 613e
000003a0: 8e29 90be c251 c33d b8d8 fabe c8e9 05be
000003b0: eb5f f03d ca3d 37be 7950 80bd f4ea 98be
000003c0: d33c acbe 40a0 153e 5233 36be 1a32 353d
000003d0: 2569 6ebd bf83 9bbe 0a6c 88bd c479 69bd
000003e0: db4e 9bbd 7cb4 2f3e f0da b0be 0bee 55be
000003f0: fef1 bab9 a752 b2be f21b 66be 5449 b3bd
-0.17326869 -0.22192174 -0.35760704 0.06467304 -0.4962027 -0.43159494 -0.22560003 -0.44296566
-0.18435656 -0.22080708 -0.14156234 -0.23808081 -0.39135137 -0.053352136 -0.20960663 -0.29441845
-0.507346 -0.1278377 -0.17507848 -0.20748901 -0.357236 -0.44402808 -0.2504352 -0.38329092
-0.21332578 -0.47828358 -0.367984 -0.27671522 -0.3851245 -0.28897157 -0.33041832 -0.17159915
-0.1481195 -0.08308794 -0.22702548 -0.14230908 -0.04430794 -0.42874858 -0.028206673 -0.26422223
-0.44447365 -0.07082792 -0.15956786 -0.20698784 -0.5184488 -0.2568289 -0.07031028 -0.03537578
-0.2522298 -0.15502082 -0.2822711 -0.435883 -0.45143792 0.06338044 -0.34282392 -0.30713835
-0.3321404 -0.18728617 -0.5278487 -0.24757382 -0.20528749 -0.16468844 -0.22406602 -0.33050007
0.07301227 -0.19052997 -0.23637824 -0.42197835 -0.2805602 -0.6642863 -0.28414056 -0.2785635
-0.32122555 -0.3710872 -0.205334 -0.4647622 -0.25281292 -0.34133825 -0.20551264 -0.03578026
-0.116086125 -0.094384536 -0.2329961 -0.28071898 -0.093899235 -0.21067858 -0.29921636 -0.42211616
-0.15483311 -0.44621244 -0.44348302 -0.3741009 -0.37491375 -0.0021444005 -0.29569438 -0.39782193
-0.17760456 -0.46269503 -0.43649352 -0.12448628 -0.16868594 -0.37021074 0.1374852 -0.16211136
-0.42998552 -0.18725197 -0.014689426 -0.49765912 0.039477505 -0.25184104 -0.17940739 -0.1910879
-0.4735109 -0.46448928 -0.13563119 -0.20556462 -0.32500723 -0.1641438 -0.28674102 -0.3228943
-0.20684537 -0.048398405 -0.47501633 -0.15554288 -0.23436031 -0.6700041 -0.34175622 -0.20832607
0.1191901 -0.026056891 -0.012201899 -0.08236036 -0.43928206 -0.3477774 -0.20946328 -0.3494428
-0.009915549 -0.2188125 0.026973132 -0.15444206 -0.051778708 -0.0846193 -0.30686858 -0.10114816
-0.4099881 0.062242657 -0.09289501 -0.328071 0.02276543 -0.13089013 -0.11823218 -0.060584545
0.1467088 -0.17318213 -0.42012882 0.13392892 0.038577404 -0.44159457 -0.48331842 -0.1667201
-0.27606004 0.20580167 0.37233278 -0.3949317 0.004989444 -0.22765574 -0.3279115 -0.30620143
-0.28781676 0.03427049 0.38389236 -0.33396417 -0.3493733 0.113281816 -0.004327052 -0.2750273
-0.14952232 -0.025114778 0.10897832 0.043896597 -0.4915813 0.015922131 -0.15727656 -0.24923667
0.00498927 -0.16582344 -0.2709611 -0.12644364 -0.27841702 0.039505903 -0.19811292 -0.18380716
-0.09800089 0.10088484 -0.18000558 -0.12771204 -0.41619906 0.026458196 0.08743383 -0.10333482
-0.12954982 -0.1990059 -0.07936378 -0.2167861 -0.09154811 -0.27043 -0.23009634 -0.06642341
-0.09523308 -0.10315256 0.08956979 0.1331344 -0.45828968 0.031645834 -0.13076562 -0.40469941
0.0735078 -0.14861193 -0.21589889 -0.068887606 -0.15361984 -0.23994693 -0.26595753 0.26835448
-0.14052804 -0.15740684 -0.09239927 0.11683176 -0.12788291 -0.17169738 -0.06406269 0.22032
-0.28156704 0.095370784 -0.48993468 -0.13077462 0.11737045 -0.17894664 -0.06265349 -0.29866755
-0.33640155 0.14611912 -0.17793015 0.044237234 -0.058205742 -0.30373952 -0.06661232 -0.05700089
-0.075834 0.17158693 -0.34542036 -0.20891587 -0.00035656983 -0.34828684 -0.22471598 -0.087542206

lstm.bias_hh_l0 f4 [512]
00000000: b289 1ebe 7976 adbe 7673 c8be deb7 00bd
00000010: fc74 f5be 642b c8be 6755 90be b286 07bf
00000020: f538 73bd ebf9 23be b463 853b c265 72be
00000030: 7d51 dfbe 7f29 27bd a3a3 45be 854c 3abe
00000040: 681b d6be 2ddf e5bd adc8 83be cb8e 2fbe
00000050: 19a0 b1be 0438 aabe 213f a3be a060 a4be
00000060: 3886 4dbe 9ab4 eebe 2aae 01bf fddf 90be
00000070: d67a 05bf 19ca 5bbe af0a 96be 3599 3bbe
00000080: d6c4 83bd dfb0 e0bd 7be0 28be c17b 28be
00000090: 9099 903c 94ed 97be 33f3 37bd de95 a1be
000000a0: 0551 06bf f3a6 7d3d 266c 79be 93d5 12be
000000b0: 4e0c edbe 43e7 61be 83b9 c1bd 746a f6bd
000000c0: b489 b9be ebfb 35bd 394a 47be f900 e9be
000000d0: ea4b edbe f05c 1b3d 7a2e a3be 895c a1be
000000e0: 357a b2be d831 8cbe 8947 01bf 20cd 5fbe
000000f0: 6bfe debd 2aeb 30bd 9c90 a9be 94d7 9ebe
00000100: 4dae df3d 726f ccbd f975 4bbe 53bb b4be
00000110: 43c3 69be fe94 27bf 3131 acbe 99b4 a8be
00000120: 23ac afbe fe2d cfbe 8528 4dbe 2b00 d5be
00000130: e60a aabe bcb5 d8be 5633 dbbd e80a fe3c
00000140: 99da 9cbd ed99 b3bd 78ba 88be 48b8 81be
00000150: 3856 64be 965d 9cbe ef70 76be a3ca ecbe
00000160: fbb7 4bbe 1693 f3be 67d2 b8be f5e0 9fbe
00000170: af5b f5be ec6d 19be fad7 81be 7e89 c0be
00000180: 1435 44be 55e3 05bf 2f6c f4be c092 04be
00000190: e8f2 1abe 2299 dabe 7791 1c3e 8030 15be
000001a0: 1752 ddbe 0d18 62be d465 07be d6d6 05bf
000001b0: 2d44 5f3d d4fc 64be dabb 34be e739 5abe
000001c0: eb3d b1be 8299 cabe 375c 0cbe 7477 f3bd
000001d0: 9c38 8ebe 7b7c 54be fda9 99be 5865 8abe
000001e0: f70c a7be 4b39 203d 22a6 d2be b513 e2bd
000001f0: c5a8 00be 602d 39bf 5784 d3be 9d76 08be
00000200: edad 873d b65f 78bc 2469 193d d7d6 2bbe
00000210: 1c53 d0be b420 a4be 4ce8 8abe bdc9 c4be
00000220: 45ba aebc 2bcf 06be 3d79 97bb 670e bebd
00000230: 1e55 20bd f9e0 b9bd 5a20 9abe 8553 04bd
00000240: 3a60 babe 704c 9bbd a4f2 1ebe de96 61be
00000250: 53f1 cfbd c283 83ba 3399 72be 2f48 80bb
00000260: a77c ba3d 7b28 76be 7e4a 05bf dc9f 983d
00000270: 578c bd3d 86fe cebe d8fd 0cbf d1fd 31be
00000280: 9c3c c7be cc27 113e c33d 803e 7ce6 b4be
00000290: 1bc4 c5ba 4fce 72be a290 aebe ef44 98be
000002a0: f244 83be 9c5f 023b facd e93e 08d4 ecbe
000002b0: 706e c0be 5e68 83bc 854a 19be 2333 9fbe
000002c0: d3b1 3abe 6622 c2bc 369e 11bd b730 e73c
000002d0: adc8 e4be e534 0fbe fe7a f4bd 6374 34be
000002e0: 7da8 8fbd 0b4c 59bd b3cf b2be 5be3 cbbd
000002f0: d4d9 66be f680 13bd 6b7b f3bd 108e 28be
00000300: edbc 3ebe f2bf cc3d 1d30 3abe 3f8c b4bd
00000310: aeb7 afbe 1175 f83c d835 2e3e b2a5 cabd
00000320: e7f2 1ebe 92b9 7dbe 4b40 433b 1769 05be
00000330: 5930 26bd cd8d c5be aa88 50be a3d4 41be
00000340: bc81 9cbd 57f6 a3bd 4346 173e af4a d23d
00000350: 5a92 f8be 8d8a 36bc 146b d5bd db85 0cbf
00000360: 2372 083d eef5 09be 6ce0 6abd c6e3 babd
00000370: b357 07be 16f1 4fbe e18d aebe c722 7c3e
00000380: 33cb a9bd 59e0 7bbe 1ed6 9fbb b389 013e
00000390: 2446 25be 0a4f 8dbd 7ff9 87bd fc3f 5b3e
000003a0: 99f6 6abe 30dd 903d b868 aabe 6332 63be
000003b0: 709e a13d 35cc 7cbd 7e13 bc3c b444 13be
000003c0: 610c f8be f616 083e 2c4e 5dbe 56e3 103e
000003d0: f48e 18bd 2e59 a5be b475 2fbe 65b7 bcbd
000003e0: 7f87 063d 3f1e 213e a166 a0be 1a81 4abe
000003f0: b667 db3c 894d b7be 46e8 9bbe 2d20 473c
-0.15482214 -0.3387945 -0.3915059 -0.03142535 -0.47940814 -0.39095604 -0.28190157 -0.52939904
-0.05938049 -0.16013305 0.0040707234 -0.2367163 -0.43616858 -0.040811058 -0.19300704 -0.18193252
-0.41817784 -0.11224208 -0.2573904 -0.17144315 -0.34692457 -0.33245862 -0.318841 -0.3210497
-0.20070732 -0.46622163 -0.5065638 -0.2829589 -0.5214056 -0.21463813 -0.29305026 -0.18320163
-0.06434028 -0.109712355 -0.16491883 -0.16453458 0.01765135 -0.29673445 -0.044909667 -0.31559652
-0.52467376 0.061926793 -0.24357662 -0.14339285 -0.4629845 -0.22060876 -0.09459212 -0.12032023
-0.36237872 -0.0444297 -0.19461907 -0.45508555 -0.4634698 0.03793043 -0.31871396 -0.3151591
-0.34858862 -0.27381778 -0.5049978 -0.21855593 -0.1088837 -0.04319302 -0.3311814 -0.31023848
0.10921917 -0.09982194 -0.19869222 -0.35299167 -0.22828393 -0.6546172 -0.3363128 -0.32950285
-0.34311017 -0.40464777 -0.20034988 -0.4160169 -0.3321144 -0.42326152 -0.10703151 0.03101106
-0.07658882 -0.087695934 -0.26704764 -0.25335908 -0.22298515 -0.3054015 -0.24066518 -0.4624835
-0.19894402 -0.47573155 -0.36098024 -0.31226316 -0.47921512 -0.14983338 -0.2536009 -0.37604898
-0.19160873 -0.52300006 -0.47738788 -0.12946606 -0.15131724 -0.42694956 0.15289865 -0.14569283
-0.43226692 -0.22079487 -0.13222438 -0.5228094 0.054508377 -0.22362071 -0.17649785 -0.2131115
-0.34617552 -0.39570242 -0.13707052 -0.11888018 -0.27777565 -0.2075061 -0.30012503 -0.27030444
-0.3262708 0.03911714 -0.41142374 -0.11038915 -0.1256438 -0.7233486 -0.41311905 -0.13326497
0.066249706 -0.015159538 0.037453786 -0.16781174 -0.40688407 -0.320562 -0.27130353 -0.38435164
-0.021329055 -0.13164966 -0.004622607 -0.09280091 -0.039143674 -0.09076113 -0.30102807 -0.032306213
-0.3640154 -0.07582939 -0.15522248 -0.22030208 -0.10153451 -0.0010033774 -0.23691253 -0.003914855
0.09105807 -0.2403888 -0.5206679 0.07452366 0.09255283 -0.4042856 -0.55074835 -0.1738198
-0.3891343 0.14175338 0.2504712 -0.35332096 -0.0015088351 -0.23711513 -0.3409472 -0.29740092
-0.2563854 0.0019893413 0.4566496 -0.46255517 -0.37584257 -0.016040977 -0.14969833 -0.31093702
-0.18231897 -0.023698043 -0.035551272 0.028221471 -0.44684353 -0.13985021 -0.119375214 -0.17622523
-0.070145585 -0.053051036 -0.34924087 -0.09955474 -0.22544032 -0.03601166 -0.118887745 -0.16460443
-0.18626757 0.09997548 -0.18182416 -0.08815812 -0.34319824 0.03032926 0.17012727 -0.09894885
-0.15522347 -0.2477782 0.002979296 -0.1302837 -0.04057345 -0.38584748 -0.20364633 -0.1892877
-0.07641932 -0.0800597 0.14772896 0.10268151 -0.48549157 -0.0111414315 -0.10420814 -0.5489175
0.033311974 -0.13472721 -0.05734293 -0.091254756 -0.13217048 -0.2030681 -0.3409262 0.24622642
-0.0829071 -0.245973 -0.0048778197 0.12650184 -0.16140038 -0.06899841 -0.066393845 0.21411127
-0.22945632 0.07073438 -0.3328302 -0.2218719 0.07891548 -0.061718185 0.022958513 -0.14381677
-0.48446944 0.13290009 -0.21611851 0.14149222 -0.037245706 -0.322946 -0.17134744 -0.09214667
0.032844063 0.15734194 -0.313283 -0.19775811 0.026782852 -0.35801342 -0.30450648 0.012153667

lstm.weight_ih_l1 f4 [512, 128]
00000000: f63f cbbe aa41 e43e 7fa2 913e b3fb 24bf
00000010: 59ca 5e3c 074d 873c 50cb 6a3e c4d0 6abe
00000020: ab51 eabc fcea 75be 0d55 7f3e 97bd ce3e
00000030: 625a 07be 1251 f53d 8207 f43e 71dd c63e
00000040: bb0c dd3d c5cd ea3e 7108 f2be d568 fe3d
00000050: db45 373e 1a28 8a3b 3e31 ec3e 7c58 d03e
00000060: d548 d83e ed3d 3f3e 90bf 0b3f 02b1 88be
00000070: d2ff 743d bd17 8a3e 9409 a33e 0183 63be
00000080: ba12 da3e 4b01 333e 2881 c5be 80f9 d13d
00000090: a332 f93c 130d e1bc 4579 0f3f 5c06 583d
000000a0: 29fa b03e 60fd 0cbf 4adb dcbe 906c c2bd
000000b0: aa77 d5be 637a 4c3e e66d 24be d7ed 15bf
000000c0: 2dde 36be 54de 6b3e d5bd 06be 03c7 99be
000000d0: a115 4b3c 418b 783d 6b9f e3be 50c4 c6be
000000e0: e9cd 0b3f 8da1 6ebc b322 aa3e a0c8 9ebe
000000f0: c22e 993e c2b8 e2be 6950 1fbf 9eb3 efbc
00000100: fa16 b33e 6e21 213e 055b 113f 6766 433e
00000110: be8f 903e 5996 81be 668e 943e 6c09 3e3c
00000120: c843 f0be 21b4 03be 3c5c dd3e 8b23 1ebf
00000130: f47e a23e 14fd bfbe c665 0d3d b4a5 ba3e
00000140: eeb4 29bd c75f abbe 5859 823b 7d1e 543e
00000150: 1a79 663f 8d2f 473d 1049 85be 3726 a43d
00000160: 6943 16be 7709 c9be ca5d 6d3d bcd6 b73e
00000170: 9e90 52bc df55 58bf 376d 96be 5858 33bf
00000180: efc5 7dbb 812b 113e ad4e c4bd c617 043e
00000190: 334b 203d 0c5d 893e f14a 933e c031 813e
000001a0: 6d8f 273f 1ece 10bf 71d2 eb3e 369b 4d3d
000001b0: dbed 933d 1075 3ebf 0e90 ff3d 8aa7 23be
000001c0: 1d83 13bf e311 293d 8797 1a3e b9b5 4cbf
000001d0: 3484 5fbe e0af 7cbe 6b9a e03e e87f d43e
000001e0: 12c8 f33d 5623 8cbe ecb1 0ebf cd66 85be
000001f0: ac29 8abe 1219 eabd 1643 913d 481c 47be
00000200: 54c7 6fbd 4735 91bd e03c 4ebe f3e3 2bbe
00000210: a6bd e4bd a41c 403e d36b 323e bb9b f2be
00000220: 0226 163f e403 1fbf 9b55 a7be 0276 2b3d
00000230: 523c bebe 2007 2fbf 7327 263f 468f af3d
00000240: 7fb7 0bbc 8b52 bfbe 9ab8 943f 34a4 183f
00000250: ccff cc3e be55 fb3e 7f78 b93e 19fc bf3e
00000260: 11ac 11be 5786 0abe 998b fe3d f10a 40be
00000270: a8f2 ef3d 8bc5 fc3e 29d3 e9be ee72 373e
00000280: 3fc8 c0be cf32 0b3d 613a 11be 6c4f 893e
00000290: 9ac0 2d3d a69b 643d 7661 ca3e 5c6b a1be
000002a0: 475c ddbe 257b 35be 0708 403f 0512 863c
000002b0: 26de e93d 99e0 2cbe 372c 8ebe b4e9 7abe
000002c0: 4b07 b9bd 3d4d e4be 3693 32be 6a8f c43e
000002d0: bd2a 963e 8b65 0cbf f5cc 4f3d 384f 313e
000002e0: 66c6 563f b631 7b3e bd19 a0bd eb2e fc3d
000002f0: c145 d1bc 7d49 ac3e baed c8be 9e96 4cbf
00000300: f314 79be 16ca 69bd 2fa9 fabd 485d a9be
00000310: 09f3 f33d 68c7 97be fe00 133e 2e65 d43e
00000320: 578a c33e 5732 0a3d db1e 1b3e 0e4d a1bb
00000330: 721b 9fbe e70a fabe b2d9 973b 871e 7abf
00000340: 91d6 60be 6a40 023f eab6 4bbd 7df9 eebe
00000350: 9922 823e e0c4 8b3e 0c8e 90be 2e37 0abf
00000360: 6b85 f53d 3102 983c 0056 f53e 9a29 593e
00000370: 3f8b e73c 4a90 a2be 464d 50be 9a1f 8a3d
00000380: 3679 58bf e7cc c2be 9398 6bbe d01b c0bb
00000390: f3d1 bf3e 12fc 03bd 5b05 2c3f a818 f4be
000003a0: ce86 e3be d9da 633e bc1c 0d3f 79cf 623e
000003b0: 7c38 103e c582 afbe a044 d7be 4a7c e33e
000003c0: efee 793e 69da d1bc aba9 b4be 55d5 08bf
000003d0: 4753 f6be 138b 1c3e d1ed 88bc 2e80 3fbe
000003e0: 9086 013e 2398 babd 1e19 ca3d 2f56 2e3e
000003f0: d8fc 44be 8887 27bf 7f75 c53e d85a a33c
-0.39697236 0.44581348 0.28444287 -0.6444656 0.013598048 0.016516222 0.2292912 -0.229312
-0.028603395 -0.2401542 0.24934788 0.4037902 -0.13218072 0.119783536 0.47661978 0.3884082
0.10793444 0.45860115 -0.47272065 0.12422339 0.17897741 0.0042162063 0.4613132 0.40692508
0.42243066 0.18675967 0.54589176 -0.26697546 0.05981428 0.26971236 0.31843245 -0.22217943
0.42592412 0.17480962 -0.385751 0.102526665 0.030419653 -0.027472055 0.5604442 0.05274044
0.34565857 -0.5507412 -0.43136054 -0.09493363 -0.4169286 0.19968562 -0.16057548 -0.5856604
-0.17858191 0.2303403 -0.13158353 -0.30034646 0.012395293 0.060679678 -0.44457564 -0.3882165
0.5461107 -0.014564884 0.33229598 -0.3101244 0.29918486 -0.44281584 -0.6223207 -0.029260453
0.34978467 0.15735409 0.5677951 0.19082032 0.28234667 -0.2531002 0.2901489 0.011598926
-0.46926713 -0.12861682 0.43234432 -0.61772984 0.31737483 -0.3749777 0.034520887 0.36454546
-0.041432314 -0.3347151 0.0039779358 0.20714755 0.90028536 0.048629332 -0.26032305 0.080151014
-0.14674152 -0.39265034 0.057950772 0.35906017 -0.012851862 -0.8450603 -0.293802 -0.70056677
-0.0038722714 0.14176752 -0.09585319 0.12899694 0.039134216 0.26828802 0.28768113 0.2523327
0.65453225 -0.5656451 0.46058992 0.05019685 0.07223102 -0.74397373 0.12478648 -0.1598188
-0.5762194 0.041276824 0.15096866 -0.79964787 -0.21827775 -0.24676466 0.43867812 0.41503835
0.11903395 -0.2737071 -0.5574024 -0.26054993 -0.26984918 -0.11430563 0.07092874 -0.19444382
-0.058539703 -0.0709024 -0.2014041 -0.16786174 -0.11168985 0.18760926 0.17423944 -0.47384438
0.58651745 -0.6211531 -0.326825 0.041860588 -0.37155396 -0.68370247 0.64903945 0.08572249
-0.008527636 -0.37367663 1.1618836 0.59625554 0.40038908 0.49088854 0.36224744 0.37497023
-0.14225794 -0.13527809 0.1242897 -0.18754174 0.11716205 0.49369463 -0.45668915 0.17914936
-0.37652776 0.033984 -0.14182426 0.26818407 0.042420007 0.0558125 0.39527482 -0.3152722
-0.43234465 -0.17722757 0.7501225 0.016366014 0.114193246 -0.16882552 -0.27768108 -0.24503213
-0.09034594 -0.44590178 -0.17438969 0.38390666 0.29329482 -0.5484244 0.05073257 0.17315376
0.8389648 0.24530682 -0.07817409 0.123136364 -0.025545957 0.33649817 -0.3924387 -0.79917324
-0.24324398 -0.05707749 -0.122393005 -0.3307898 0.1191159 -0.29644322 0.14355847 0.41483444
0.38191482 0.033739414 0.15148489 -0.0049225157 -0.31075627 -0.48836443 0.0046341056 -0.9770283
-0.2195685 0.5087954 -0.049734987 -0.4667472 0.2541702 0.2729864 -0.28233373 -0.5399045
0.11988338 0.018555732 0.47917175 0.21207276 0.02826464 -0.3175071 -0.20341977 0.06744309
-0.84559953 -0.38046953 -0.23007421 -0.0058626905 0.37464866 -0.032222815 0.6719567 -0.4767506
-0.44438785 0.22251453 0.5512197 0.22149457 0.14084047 -0.34279457 -0.42044544 0.44430763
0.24407552 -0.025616841 -0.35285696 -0.5345052 -0.4811041 0.15287428 -0.016714962 -0.1870124
0.12648988 -0.09111049 0.09868072 0.17025064 -0.19237077 -0.6544118 0.38566205 0.019940779

lstm.weight_hh_l1 f4 [512, 128]
00000000: 3fa6 893e 1b41 2c3d 8a4b 0d3f 508b 4bbf
00000010: 5126 edbd c9f5 89be e476 79bd df5a a2bd
00000020: 3e1f dd3e b73b 003f 0688 3b3d 6b0d f8bb
00000030: d75d 873b eff2 9c3c f509 23bc ac48 383d
00000040: ee86 983d f062 903e f418 573e 74de b5be
00000050: 54f9 7abd 4c16 cb3d 6f0a 43be f216 37bd
00000060: 4e31 20be 5d29 293e c475 df3d 2a6b 783e
00000070: 570f 293f 463f ecbd d26a e1be f99a 323e
00000080: 123a 7b3e 11ba 743e 6757 f93e be37 84be
00000090: dfd3 38bc 77ed eb3e 1c3d d4bd 277f b3bc
000000a0: 871b 183b e3e0 da3c 8047 b93c bb20 513c
000000b0: ab2d ed3d 9412 19be d8ec 9fbb 552e dcbd
000000c0: 60af 44bd 01ba 3dbd 84f2 17be d0e7 11bd
000000d0: fcca 0a3e c9e9 a2bc 5d2e 3ebe 7773 92be
000000e0: b976 8e3e 54eb 05bd fc7a 00be 5eda 72be
000000f0: ff52 d23c fef4 113f 7d7a c4bb 77af 8e3d
00000100: 39da e1be f319 e0bd db60 893e 4274 443d
00000110: 8ebe c6be 4f9d 0f3e ac0d f0bc 2329 cabd
00000120: db4f 173e 2833 de3d a6b6 acbd 448c a8bd
00000130: 8262 48be 393f c63d 8d82 f83a af40 d9bc
00000140: ca6e 2dbc 44d9 aa3e 5a55 e63d 1813 953d
00000150: 744f 1cbe 9db1 1d3e d95e 1cbe ceba e7be
00000160: 0b09 2abe ca62 85be 5d14 8dbd 72b3 00bc
00000170: 21f7 a4bd 1fe4 1cbc 95f2 0d3d a6d7 a13d
00000180: 0f71 abbd 733d 77be 2980 49bd e24e 273d
00000190: bc09 86bd 9baa 6ebe f53c 61be b4fa 4dbe
000001a0: e145 22be 8ca4 a5bd 9d36 a6be eccd 983e
000001b0: ee65 a83e 9edd adbd 19b4 293e 52ce 6ebe
000001c0: 7002 13be e3c9 4a3e 244d 8e3e d971 05be
000001d0: c2a0 bcbd fdbc f5be 46f1 8c3d 3559 d03d
000001e0: e9b9 8abe 2e1f bb3e 2aa1 043e 4e4b a43e
000001f0: 3906 b3bd eb2a c73e 4e9f 9bbd 5dee 063e
00000200: ea24 333e 44a9 1fbe 20a9 363e fb9e 923e
00000210: eb2f 98be d56b 5b3d 711c aebe 28f3 813e
00000220: dd80 763d 025d 6cbe 575d cd3d 8ed0 633e
00000230: 1227 c53e 3802 d53d 7293 2bbd 4c4d d0be
00000240: a8f1 be3e a291 61be bb85 d5bd 52dd af3c
00000250: 7e2b 813e 77e2 b73e 2470 753e 62e0 aebd
00000260: cf59 073f bf21 0ebe 9847 353f 6637 1bbe
00000270: abca 2d3e a96f b33e 2561 e0bd 17e0 8b3d
00000280: 7cfc 6e3e cb45 c4bd 024f 8bbe aa98 fc3d
00000290: eafe 6abe 7dd8 e63c f73d 063d feca 26bd
000002a0: 07f3 f1be 1564 323d bb5f 01be bb6f 043e
000002b0: 7912 d03e dd83 b13d 66e2 013e d66d 89be
000002c0: 4a8b d43e efb8 093e af75 27bf e28c 073e
000002d0: b69d 653e a147 0d3f b075 543b d264 60bd
000002e0: 73ba 8abe fda4 1d3e a99b 9f3e c01e 1cbe
000002f0: 9285 a83d 17e8 243d 5314 bc3e 87c2 87bd
00000300: e8ff 603d ee9c 543e 3d50 933e 3331 133f
00000310: 9c01 6fbd 055d d1be a479 78be 70a0 b5be
00000320: b8c2 83bd 1e38 64bd c839 f2be 9962 353e
00000330: f4db c73e a351 e1bd d877 223c 022b 10be
00000340: 88b1 29bb ab11 9cbe 1e4f e0bc 9222 bebe
00000350: 5695 09be c3f0 a33e e9e8 1b3e 8cfe 953d
00000360: a0b9 3cbf 2613 bf3e 6752 04be 438c cebe
00000370: fb4d af3e 8dec 1e3c 6169 193e 2001 6c3d
00000380: 2c52 1bbe 475d 923e 9c11 843d 6712 aabe
00000390: 8423 293e 0db0 92be 214c 0fbf 4514 9abe
000003a0: 9a6d 31be e2da 633d 4bb9 2cbe e552 2abe
000003b0: b64c 4e3e 51da 263f f3dd 60be 1277 d2bd
000003c0: 5449 b8be b653 bf3e d773 ebbe 7b06 0e3e
000003d0: 3149 1cbe c7a2 14bc acc7 6dbe d10a 11bf
000003e0: 428a 563e cf98 57bb 8efd 813d cef1 9d3d
000003f0: 9f87 b4be 0166 873e 1dad 01bf feb6 87be
0.26884648 0.042054277 0.5519339 -0.7950945 -0.11579574 -0.26945332 -0.0609044 -0.079274885
0.43187898 0.5009112 0.04578402 -0.007569959 0.0041310596 0.019158809 -0.009951104 0.04499118
0.07447611 0.28200483 0.21005613 -0.3552128 -0.061272934 0.09916362 -0.19046949 -0.044699617
-0.15643808 0.16519685 0.10911134 0.2425963 0.6603903 -0.11535506 -0.4402681 0.1744193
0.24533871 0.23899104 0.48699495 -0.25823778 -0.011280983 0.4607961 -0.10363218 -0.021911217
0.0023209767 0.026718562 0.022617102 0.012764151 0.11580976 -0.14948493 -0.004880529 -0.10751025
-0.048018813 -0.046319965 -0.14838606 -0.035621464 0.13553995 -0.019886868 -0.18572374 -0.28603718
0.27824953 -0.03269513 -0.12546915 -0.23716113 0.025674341 0.57014453 -0.005996047 0.06967061
-0.44111803 -0.109424494 0.26831707 0.047962435 -0.38817257 0.14024852 -0.029303394 -0.098711275
0.14776556 0.10849601 -0.08433275 -0.082298785 -0.19568828 0.096800275 0.0018959806 -0.026520101
-0.010585496 0.33368886 0.11246748 0.072790325 -0.15264684 0.15399785 -0.15270557 -0.45259708
-0.16605012 -0.26051933 -0.068886496 -0.007855283 -0.080549486 -0.009575873 0.034655172 0.0790246
-0.083711736 -0.24144535 -0.04919449 0.040846713 -0.065448254 -0.23307268 -0.2199591 -0.20115167
-0.15846969 -0.080880255 -0.32463542 0.29844606 0.32890266 -0.08489536 0.16572608 -0.23320892
-0.14356399 0.19803576 0.2779323 -0.1303171 -0.092103496 -0.4799575 0.06881957 0.10173265
-0.27094963 0.36547226 0.12952104 0.32088703 -0.08741421 0.3889993 -0.07598744 0.13176866
0.1749455 -0.15591913 0.17837954 0.28636917 -0.29724059 0.053569634 -0.34006074 0.25380826
0.060181487 -0.23082355 0.10027569 0.22247526 0.3850637 0.10400814 -0.04188866 -0.40683973
0.37293744 -0.22028211 -0.10425898 0.021467838 0.25228494 0.35914966 0.2396856 -0.085388914
0.5287141 -0.1388006 0.7081237 -0.15157852 0.16971843 0.35046127 -0.10956029 0.06829851
0.23338503 -0.095836245 -0.27208716 0.12333806 -0.22948804 0.028179402 0.032773938 -0.040720932
-0.47255728 0.043552477 -0.12634175 0.12933247 0.40639094 0.08667729 0.1268402 -0.2684161
0.4151252 0.13449453 -0.65413946 0.13237336 0.22423443 0.5518742 0.003241878 -0.05478365
-0.27095374 0.1539497 0.31173447 -0.15246105 0.082286015 0.0402604 0.36734256 -0.066289
0.05493155 0.20762989 0.28772154 0.5749695 -0.058351144 -0.4089128 -0.24265152 -0.35473967
-0.06433624 -0.05571758 -0.4730971 0.17713393 0.39034998 -0.11001899 0.009916268 -0.14078906
-0.002589317 -0.3048223 -0.027381476 -0.3713575 -0.13435873 0.32019624 0.15225567 0.073239416
-0.7372074 0.37319297 -0.12922059 -0.40341386 0.34239182 0.009699953 0.14981605 0.05761826
-0.15168065 0.2858679 0.06448671 -0.33217165 0.16517454 -0.2864994 -0.5597554 -0.3009359
-0.17326966 0.055628665 -0.16867559 -0.16633184 0.2014645 0.65176874 -0.21959667 -0.10276617
-0.35993445 0.37368554 -0.45986816 0.1386966 -0.15262295 -0.009072012 -0.232207 -0.5665713
0.20951179 -0.0032897478 0.0634719 0.07712136 -0.3525972 0.2644501 -0.50654775 -0.265068

lstm.bias_ih_l1 f4 [512]
00000000: 40f2 01bf 33ce aebe 0967 32bd 3890 05bf
00000010: 70cc c7be 208a 94be 9165 ed3d d0db 13be
00000020: 8ff1 21be 143c 27bf 487f 24bf d739 19bf
00000030: fc63 a9be a9d6 6fbe 5314 60bd 9d0e bdbe
00000040: 47b2 b6be 6b47 60be 2aa8 dbbe bb9f a2be
00000050: 5401 b2be 09f1 d0be d29b 86be fbfc 2ebd
00000060: 0c5c f8be 4797 04bf f48d 8f3d 88ee dfbe
00000070: fd4c 7dbe bece 8abe f20a 19be 3f2e ecbe
00000080: 856e 3dbe 40fe 15bf f58f ba3c c8f5 ecbe
00000090: fe4b e1be 88f6 343d 70e5 b6be 3b34 a0be
000000a0: 6561 29bd 09e1 a8be a79c dfbe fb3e 42be
000000b0: 1bbb 25be 376d 35bf 6124 c4be fb39 a43d
000000c0: 893b 68be eba4 083e f02e eb3e 2180 a93e
000000d0: a3f7 2abe 6994 8fbe bc79 e8bd 1b2d a1be
000000e0: daab 32be 0179 49be 92d2 523c 2942 7ebe
000000f0: 993f 1dbe b1b3 74be 1e0f fabe cc98 28bf
00000100: 2ef7 81bd 8479 9bbe c4d8 3fbe 1fc9 43be
00000110: 8fe4 39be d092 7e3e bb61 10bf 5e58 a3be
00000120: 3f93 a4be a2bb cdbe 196d 90be d0f0 9abe
00000130: d1b7 23bf 5335 22bf d93c e4be 4507 adbe
00000140: 605c 97be b27a 05bc 229e 9dbe 0d06 73be
00000150: 8cab f8be 1cf2 82be 7c1c 89be 2321 83bf
00000160: 2dc7 1fbe a255 4cbe a3b2 87bd f02d a7bd
00000170: 6632 09bf ca60 18bf f175 4fbe 3d2c 3ebe
00000180: 9431 8fbd 9f93 22bd 4fe6 fcbe a509 32be
00000190: 01ba cc3c d471 f6bd a029 d0be 3bbc f1bd
000001a0: 9b1c 27be 2695 0bbf cd88 a0be 49e5 11bf
000001b0: abf8 80be 8715 bbbd 165c 8bbe 897b 61be
000001c0: df46 1cbe 6096 e0be dbb4 07bf 018f 75be
000001d0: 8f11 d1be eca3 e0bc 38d0 69be 3bcb 1a3e
000001e0: 1fdd 5abe 3a13 c9bd 3122 d0be 2a00 d8bd
000001f0: 56fb b9be dea1 06bf f597 083d cf24 c2be
00000200: 499a 58be cd3c a13e 9952 033f 9219 933d
00000210: 2aec a03e 744b e53e ce4d 073f 93f2 353d
00000220: d5d4 8a3d 0850 393e 9d4a af3e 4b3e 88be
00000230: e14f b13c 300e b93e 029f c0bc 6826 8f3c
00000240: 8902 903d 13f7 263c 4bcf 193f e7c4 813d
00000250: 09df 97bd 51d3 c23d bac7 293f a1e9 21be
00000260: 2450 d2bd 0b09 9b3e e84b 423e a7ec 8fbd
00000270: 3608 b23e 7a45 453c 0c00 933d 9b88 bebd
00000280: 8861 0d3d 0b43 18be 6f11 133e 5bda 093f
00000290: 7963 81be 1482 a93e b53f a9bd 1384 95bc
000002a0: c96f ba3e 5350 e93d 4b89 5a3d 474b 9b3e
000002b0: afd6 e3bd 8851 553f d2e0 803e 917b 193f
000002c0: fdc5 7bbd 91fe c8bc 70ed 1f3f 413f d43e
000002d0: 9274 b4bd e5b9 5bbd 994f febd 8eca 44be
000002e0: bd3a 8a3e 5c7f 97be d50c 813e 4aaa 1a3e
000002f0: 9796 613e 7a5f eebd e89f 92bd e68b e5be
00000300: d19b b4bd 1e34 f13e 911d 5bbd 268e 80bd
00000310: de3c 1d3e 6cc2 b13e 7803 003f c5b3 2f3e
00000320: ace7 4dbd 1908 1e3e 04a0 1e3d 583a 6a3e
00000330: 01fb 6f3e dcd1 103e a938 4abe 6db5 c63d
00000340: 2a43 c0bb 7fbb 393e 0bd7 313e bc16 6a3e
00000350: 8f2c d9bd c4f8 943e 5cc4 f9bd 0d62 0cbf
00000360: 58ab 3c3e c61b 0a3f 3941 753d 65fe e9bd
00000370: 17b1 0ebd 6707 653e ba6b 0a3f ed5e f33e
00000380: 7992 dcbd 6291 ed3e 568d 80bd a229 403e
00000390: 9e40 043f f10c 053d 28cb 1d3c 7320 88bd
000003a0: 5823 b8bd 0278 b03e 1f76 a3bd b6f8 4b3e
000003b0: a4b4 903e c7f2 d33e ce0a f3bc fdfd 5d3e
000003c0: adbb 0b3e 7a9f d53d 9ec8 c33d 0c8c ac3d
000003d0: fb14 a9be 33f8 96bd bd48 21be 1374 d33e
000003e0: 2b44 fc3c 5af7 78bd 968c e73c afa6 0f3e
000003f0: edd4 653e dd01 133c 8093 9e3d e20d 933e
-0.5076027 -0.34141693 -0.043555293 -0.52173185 -0.3902316 -0.2901163 0.11591638 -0.1443932
-0.15814804 -0.65326047 -0.64256716 -0.5985388 -0.33084095 -0.2342173 -0.054706883 -0.36925212
-0.3568289 -0.21902244 -0.42901736 -0.3176249 -0.34766638 -0.40808895 -0.26290756 -0.04272173
-0.48507726 -0.5179333 0.07009497 -0.43736672 -0.247364 -0.27110857 -0.14945582 -0.46129033
-0.18499191 -0.5859108 0.022773722 -0.46281266 -0.4400329 0.044180423 -0.35721922 -0.3128985
-0.04135265 -0.32984188 -0.43674204 -0.18969338 -0.16184656 -0.70869774 -0.38309005 0.080188714
-0.22678961 0.13344161 0.45934248 0.33105567 -0.16696028 -0.28042915 -0.11351344 -0.31479725
-0.17448369 -0.19675066 0.012867587 -0.24829926 -0.15356292 -0.23896672 -0.48839658 -0.6585815
-0.06345974 -0.30366147 -0.18735033 -0.1911969 -0.18153594 0.24860692 -0.56399125 -0.31903356
-0.3214359 -0.40182215 -0.28208235 -0.3026185 -0.63952357 -0.63362616 -0.44577673 -0.3379461
-0.29562664 -0.008146929 -0.30784708 -0.23732777 -0.4856838 -0.2557534 -0.26779544 -1.0244488
-0.15603323 -0.19954541 -0.06625869 -0.08163059 -0.53592527 -0.5952269 -0.20259835 -0.18571563
-0.06991878 -0.039691564 -0.49394462 -0.17386492 0.024991037 -0.1203343 -0.40656757 -0.1180348
-0.16319506 -0.5452446 -0.3135437 -0.56990486 -0.2518972 -0.091349654 -0.27218693 -0.22019781
-0.1526141 -0.43864727 -0.5301034 -0.23980333 -0.4083371 -0.027421914 -0.22833335 0.15116589
-0.21373414 -0.0981812 -0.40651086 -0.10546906 -0.36324567 -0.5259074 0.033348043 -0.37918708
-0.21152605 0.314917 0.5129791 0.071826115 0.3143018 0.4478413 0.52853096 0.04442079
0.06778876 0.18096936 0.34236613 -0.26610026 0.021644535 0.36143637 -0.02351332 0.017474368
0.070317335 0.010190743 0.6008193 0.06336384 -0.074155875 0.09512962 0.66320384 -0.15811779
-0.10269192 0.30280337 0.18974268 -0.0702756 0.3477189 0.01204049 0.07177743 -0.09303399
0.03451684 -0.14869325 0.14362119 0.5384881 -0.25271204 0.33107054 -0.08264104 -0.018251454
0.3641341 0.11392274 0.05335359 0.3033087 -0.11124932 0.8332753 0.25171524 0.5995417
-0.061468113 -0.02453545 0.62471676 0.4145451 -0.088112965 -0.05364408 -0.12417526 -0.19217893
0.2699794 -0.29589355 0.25205103 0.15104023 0.22030102 -0.116393045 -0.07159406 -0.44833297
-0.08818782 0.47110075 -0.053494994 -0.06277113 0.1535525 0.34718645 0.5000529 0.1715842
-0.050269768 0.15432777 0.03872682 0.22873819 0.23435594 0.14142555 -0.19748177 0.09702573
-0.0058673816 0.1813793 0.17367189 0.22860235 -0.10604202 0.29096043 -0.12195656 -0.54837114
0.18424737 0.5394863 0.059876654 -0.11425475 -0.034836855 0.22366105 0.5407063 0.4753336
-0.10770125 0.4639998 -0.06276958 0.18765882 0.516611 0.032483045 0.009630956 -0.06646814
-0.08991116 0.3446656 -0.07981514 0.19919094 0.28262818 0.41396162 -0.029668238 0.2167892
0.13645811 0.10430808 0.09559749 0.08425149 -0.3302382 -0.07371559 -0.15750404 0.41299495
0.030794224 -0.060782768 0.028265279 0.14028428 0.22444506 0.008972612 0.07742977 0.2872153

lstm.bias_hh_l1 f4 [512]
00000000: 4a35 22bf 8b95 b1be 0ad4 31be c3a7 f0be
00000010: 6c1e 03bf 486b b9be b0cf 443e aa12 29be
00000020: a97a 33be f643 1fbf 4103 41bf 8f99 26bf
00000030: a47a bcbe 4bea 04be 3187 acbd 6492 b1be
00000040: 871f e6be 9033 8fbe f006 11bf 3d97 b0be
00000050: eefa aabe 8a95 e1be d7dd 93be 8e2d 71bd
00000060: 29eb b2be 2268 0bbf 1215 d73d ea3a b5be
00000070: 1772 5dbe fcba 94be cea7 cdbd e811 d3be
00000080: 98c4 86be db81 f3be 2836 d2bc 494d 03bf
00000090: d8df c8be 928a 323d c6c6 bebe 5334 e5be
000000a0: e4bf c5bc 95da 8bbe c392 b4be d4ab 87be
000000b0: babf 9abe 37d8 2cbf 8ddb c4be 61e8 253e
000000c0: d8ba 95be 4a3b 933d 0199 043f 653a 813e
000000d0: 3419 55be 58c8 a0be c4f7 30be df74 a9be
000000e0: f1b6 1abe cffc 47be e1d2 4c3d 95e9 01be
000000f0: 4b7b 8fbd ca03 00be 14ee d7be a38e 4bbf
00000100: d222 9fbc 3f3f babe c970 96be 7739 7bbe
00000110: af7a 3fbe acc6 833e 2743 f9be 7334 8cbe
00000120: 98b4 69be 973c b4be 2c6f 90be 322d 96be
00000130: 286b 2bbf 0875 1dbf e9e8 03bf 34e9 8cbe
00000140: 9aa9 80be 27ff 0cbd ea61 ebbe 7e7d 6dbe
00000150: 210a c2be 577c 78be e209 a7be 90b7 83bf
00000160: 23c8 44be fe6e 90be f71d 933d 9114 fbbd
00000170: 20cc f4be 003f 0bbf e754 8fbe 3441 dabd
00000180: 9bd6 6bbe 8c17 9abd 4b46 f3be 180c 65be
00000190: 3c6c 173d dcd2 01be 511c b6be f825 28be
000001a0: b5f6 43be 32b1 14bf e332 91be c2f8 08bf
000001b0: ac0e 80be 7bc1 e9bd eff0 90be 393b bdbe
000001c0: b14e 2dbe 01a9 d4be 0d0f c5be c3b4 8dbe
000001d0: 5984 d8be 22a3 36bd 8287 69be 2a1e 293e
000001e0: 88c0 9cbe 130a 29be 8ffb eebe 47a6 36be
000001f0: 98f7 bfbe 9223 eabe a1d0 253e f146 b0be
00000200: b066 8abe 9129 b23e 70f1 023f 8ea0 4a3c
00000210: 4f21 913e ba34 f33e a8c3 c23e 6bda e33d
00000220: 46d8 2a3e 0bdc 823e decc 903e fdce 6cbe
00000230: 5ba2 823d f7a6 a83e 79d2 753b 11f3 fe3c
00000240: 2847 06bd 6f99 48bd 4eb5 013f 6915 913d
00000250: fafd 513c b87a 3d3e 26d4 103f 53cc 31be
00000260: 1d9c 0bbd d47e 9d3e 4e74 213d d288 5abd
00000270: d6dc dc3e 8994 453d 47bf a53d 1309 463d
00000280: 6bc6 d2bc 7a19 5fbe 2f68 433e 98e6 003f
00000290: e5f2 78be 4cc8 9e3e 3e6a cd3c 38f1 dcbd
000002a0: bcb0 833e 3749 3c3d 9078 b83d 78cf ae3e
000002b0: 589f 41bd d906 5e3f 059c 803e 64a2 0f3f
000002c0: 9e79 553d 35e0 73bd d61c 243f e7f7 dc3e
000002d0: 4363 87bc da97 17be 944c 78bb 66bc 09be
000002e0: 34c5 7f3e f221 73be bbef 523e af6d 273e
000002f0: 0681 743e ae88 7abe 049f 95bd 16f0 e9be
00000300: e7d5 44be 7e71 e23e df35 00bd cc99 1b3d
00000310: 0da1 ab3d 05b6 ce3e 9d59 f43e b369 0f3d
00000320: b593 0ebc 16cf 443e 7ffe ab3b d7eb 083e
00000330: 5a64 973e 3fc5 d53d 8bda f7bd a219 f43d
00000340: 57a3 763c c264 763e 9b99 153e 7212 0a3e
00000350: 2a42 6bbe fd57 993e 3ada 5cbc c07c f6be
00000360: 642c 563e 7590 253f dc74 f23c a87a efbd
00000370: fd7b a5bd 7a9c 663e 6a0f 0a3f de17 093f
00000380: 5916 7ebe 4754 023f a042 5b3d ffe3 273e
00000390: de5a 053f 0646 573d 79e2 d93c 0a81 76bd
000003a0: 201b 3f3c cc6a 913e f1ca 94bd de7e 243e
000003b0: 80e9 883e 2888 dc3e 2db2 b93d 3c80 563e
000003c0: cc8f 573e 35fb 0a3e b62c aa3d 67ee 2f3e
000003d0: 53eb c2be a427 37be e6a5 cdbd 40e3 df3e
000003e0: cf42 573d 54cd e23c 0d4c 0b3e eac3 8b3e
000003f0: 0a11 5c3e f0d9 2cbc c3d7 8f3d b2f8 4b3e
-0.6336256 -0.34684405 -0.17366043 -0.47002992 -0.51218295 -0.36214662 0.19219851 -0.16511026
-0.1752726 -0.62213075 -0.7539559 -0.6507806 -0.36812317 -0.1298 -0.08424223 -0.34682
-0.44945928 -0.27969027 -0.5665121 -0.34490386 -0.3339457 -0.44059402 -0.28880188 -0.058881335
-0.34945038 -0.5445577 0.10502066 -0.3539651 -0.21625553 -0.29048908 -0.10041772 -0.412246
-0.26321864 -0.4756001 -0.02566059 -0.512898 -0.3923328 0.043589182 -0.37261027 -0.44766483
-0.024139352 -0.27315202 -0.3526822 -0.26498282 -0.302244 -0.6751742 -0.38448754 0.16201927
-0.29244113 0.07189043 0.51795965 0.25239864 -0.20810395 -0.3140285 -0.17282015 -0.33096978
-0.15108849 -0.19530033 0.050005797 -0.1268676 -0.07005938 -0.12501445 -0.42173827 -0.7951452
-0.019425783 -0.36376378 -0.29382923 -0.2453364 -0.18699144 0.25737512 -0.48684046 -0.27383766
-0.22822797 -0.35202476 -0.28209817 -0.29331356 -0.6696038 -0.615067 -0.5152727 -0.2752167
-0.25129396 -0.03442302 -0.4597314 -0.23192403 -0.37898353 -0.24266182 -0.32624727 -1.0290394
-0.19216971 -0.2820968 0.0718345 -0.12259782 -0.47811985 -0.54393005 -0.27994463 -0.10656968
-0.23031084 -0.075240225 -0.47514567 -0.22367895 0.036968455 -0.12678093 -0.3556848 -0.16420734
-0.1913708 -0.5808288 -0.28359136 -0.53504574 -0.25011194 -0.114138566 -0.28308818 -0.36959246
-0.1692455 -0.4153519 -0.38488045 -0.27676973 -0.42288473 -0.04458917 -0.22805598 0.16515413
-0.3061564 -0.1650775 -0.466763 -0.17836867 -0.37493587 -0.45730263 0.16192867 -0.34429124
-0.2703147 0.34797338 0.51149654 0.012367381 0.28345725 0.47501165 0.380399 0.11125644
0.16684064 0.25558504 0.282813 -0.23125835 0.06378623 0.32939884 0.0037509485 0.031121762
-0.032782704 -0.04897445 0.50667274 0.07084162 0.0128169 0.18503845 0.5657371 -0.173631
-0.034084428 0.30760825 0.039417557 -0.05335314 0.43137234 0.048237357 0.08093124 0.048348498
-0.025729379 -0.21787062 0.19082712 0.5035186 -0.24311407 0.3101219 0.025075074 -0.10788196
0.25720775 0.04596826 0.090073705 0.3414266 -0.047271103 0.867292 0.25119033 0.56107163
0.052117936 -0.059539992 0.641065 0.43157884 -0.016526824 -0.1480402 -0.003788744 -0.13450775
0.24977571 -0.23743418 0.20599262 0.16350435 0.23877344 -0.24466202 -0.073057204 -0.45690984
-0.19222222 0.44227213 -0.031301375 0.03798847 0.083803274 0.40373245 0.4772462 0.035012912
-0.008702208 0.19219622 0.005248844 0.13371216 0.2956875 0.10438012 -0.12102231 0.119189516
0.015053592 0.24061874 0.14609377 0.13483599 -0.22974458 0.29949942 -0.013479764 -0.48142052
0.20915371 0.6467355 0.029596739 -0.11693317 -0.080802895 0.22520629 0.5392977 0.53552043
-0.24813212 0.5090985 0.053530335 0.16395567 0.5209178 0.052557014 0.026597248 -0.060181655
0.011664182 0.28401792 -0.072652705 0.16064021 0.26740646 0.4307263 0.090671875 0.20947355
0.21050948 0.1357239 0.08309309 0.17180787 -0.38070163 -0.17886215 -0.10041408 0.43728065
0.052553948 0.027685799 0.1360323 0.27297908 0.21490875 -0.010550007 0.07023575 0.19919088
