base/logistic_model.ckpt (torch, 32898 bytes, 2 tensors)

weight f4 [10, 784]
0.025895234 0.018895362 -0.029207716 0.0024809204 -0.02304037 0.02668162 0.021829542 -0.016170613
-0.006540673 -0.034875713 0.02046771 -0.02361944 0.033311773 -0.011125284 -0.028624043 -0.033900797
0.004407756 0.016893629 -0.03377156 -0.025210313 0.0074984506 0.01835033 -0.009014381 -0.03379616
0.0069813468 0.00012372062 0.017870381 0.0041178763 -0.0024531595 -0.027593732 -0.035050936 -0.0143292975
0.031188205 -0.0028790885 0.016784335 -0.030020805 -0.02683688 0.021488404 -0.027259301 0.016043833
-0.004995315 -0.024480198 0.017381543 0.02324502 -0.019528424 -0.007813963 0.027544955 0.018078906
-0.018305361 -0.0243783 -0.021097155 -0.024848817 0.019640196 -0.03218086 -0.019242398 -0.0033594407
-0.015343079 -0.015120652 -0.030799855 -0.011457969 -0.029232414 -0.0016629142 -0.009859002 0.011683099
-0.029528609 -0.037643865 -0.0021611692 0.022377197 -0.018655352 0.016543405 -0.036977887 0.008156871
-0.01645795 0.009594389 -0.008673222 -0.012568301 -0.008103332 -0.017028688 0.021043578 -0.0036852525
0.0016436634 0.03036979 0.008885607 -0.018851047 -0.01820742 -0.032782957 0.016755648 0.00044314942
0.014191391 -0.03569202 0.009178996 0.009257242 -0.015592378 -0.04529729 -0.018923335 -0.033558864
-0.039396018 -0.03701568 -0.038375385 -0.031303495 -0.014216945 -0.063947454 -0.03332998 -0.05710172
-0.054873623 -0.041058395 -0.04372754 0.018433532 -0.025713222 0.01516216 0.0021484834 0.008688647
0.0022764541 -0.012737219 0.010272827 -0.0049515283 0.034528993 -0.032525953 -0.030693233 -0.017626602
-0.031795263 -0.039797753 0.0065100337 -0.04390325 -0.031231554 -0.019320905 0.018122202 0.028991442
0.025566421 -0.009883397 -0.00011774854 -0.046180185 -0.02774283 -0.035619937 -0.025234163 -0.041058272
0.011661133 -0.035437517 -0.0042457953 0.031339444 -0.013393253 0.030004214 0.0011556488 0.026632573
-0.018465621 0.024401668 -0.024462514 -0.019947166 -0.02074516 -0.04219585 -0.021085858 -0.008586676
-0.022817545 0.022677088 0.07951081 0.11068668 0.11088233 0.097626776 0.03308458 0.057240527
-0.030608742 -0.041805435 -0.03244149 -0.029555209 -0.031879697 -0.027552612 -0.021660555 -0.02349952
0.03456905 -0.030345008 0.012164414 -0.025604185 -0.017566893 -0.038869176 -0.03788196 -0.035322525
-0.0250709 -0.06941181 -0.015101422 -0.0029021255 0.043717932 0.07998937 0.056743134 0.083559155
0.118336536 0.13735048 0.13143092 0.05472396 0.018763669 0.051830854 -0.0016439033 0.000949454
-0.007526577 -0.0121650705 0.013122065 0.0039644865 0.0021616628 0.024539769 -0.028750237 0.032448806
0.013941077 -0.010336149 -0.029560087 -0.019913372 -0.05649727 -0.040217724 -0.05020948 0.013537813
0.008127941 0.02471123 0.057335954 0.10091521 0.10018248 0.11740202 0.12860678 0.071435854
0.054872695 0.039058637 0.021130532 -0.02159379 -0.013628785 -0.001987554 0.002037424 0.023859972
-0.02278633 -0.02312206 -0.008056712 -0.026969722 -0.022443945 0.008882413 -0.050085884 -0.04440257
-0.029735412 0.0058447723 -0.0044983895 0.025096525 0.033076733 0.033584613 0.03899713 0.053428628
0.11051134 0.14844236 0.14079636 0.0978345 0.049339492 0.06351944 0.030082824 0.025274629
0.00060481986 -0.05232908 0.027805658 0.010023494 0.0063442383 0.00022092632 0.0027240026 -0.002336436
00000000: 3e22 d43c 72ca 9a3c 0545 efbc f096 223b
00000010: 28bf bcbc 6a93 da3c ded3 b23c 3c78 84bc
00000020: 2453 d6bb d6d9 0ebd e6ab a73c 8e7d c1bc
00000030: ed71 083d d346 36bc f87c eabc 90db 0abd
00000040: f06e 903b 8264 8a3c 0c54 0abd dc85 cebc
00000050: 90b5 f53b 6e53 963c 0eb1 13bc d86d 0abd
00000060: c8c3 e43b 00bb 0139 e864 923c 40ef 863b
00000070: 30c5 20bb 400c e2bc 9291 0fbd 6ec5 6abc
00000080: 687e ff3c 17af 3cbb 4d7f 893c 31ee f5bc
00000090: 04d9 dbbc 7308 b03c e64e dfbc 5b6e 833c
000000a0: bdaf a3bb b28a c8bc bd63 8e3c 576c be3c
000000b0: 13fa 9fbc 2306 00bc f5a5 e13c 371a 943c
000000c0: 20f5 95bc 00b5 c7bc f1d3 acbc bf8f cbbc
000000d0: 7ae4 a03c 14d0 03bd 3ca2 9dbc 102a 5cbb
000000e0: 8a61 7bbc 9cbc 77bc fa4f fcbc 35ba 3bbc
000000f0: d178 efbc 24f6 d9ba a787 21bc 786a 3f3c
00000100: fbe5 f1bc 7430 1abd 67a2 0dbb 6250 b73c
00000110: 1cd3 98bc 0986 873c 2076 17bd 66a4 053c
00000120: d3d2 86bc c931 1d3c 211a 0ebc 46eb 4dbc
00000130: d6c3 04bc bf7f 8bbc 9563 ac3c 4784 71bb
00000140: 3170 d73a 11ca f83c f094 113c 836d 9abc
00000150: ba27 95bc 6c47 06bd 2443 893c 8256 e839
00000160: 0283 683c cc31 12bd 8063 163c b0ab 173c
00000170: 2c77 7fbc a789 39bd 1c05 9bbc 0575 09bd
00000180: b85d 21bd c19d 17bd 822f 1dbd 1838 00bd
00000190: 30ee 68bc e2f6 82bd 0485 08bd 7ee3 69bd
000001a0: 2ac3 60bd d92c 28bd a61b 33bd eb01 973c
000001b0: 89a4 d2bc b56a 783c 92cd 0c3b d45a 0e3c
000001c0: 9030 153b c5af 50bc 5c4f 283c 6e40 a2bb
000001d0: 466e 0d3d ef39 05bd 6070 fbbc aa65 90bc
000001e0: c03b 02bd f802 23bd 1f52 d53b e5d3 33bd
000001f0: 51d9 ffbc e046 9ebc 0375 943c 767f ed3c
00000200: ac70 d13c f9ed 21bc c4ef f6b8 6f27 3dbd
00000210: ee44 e3bc 36e6 11bd e0b7 cebc b82c 28bd
00000220: 560e 3f3c ee26 11bd 5020 8bbb ca5d 003d
00000230: 606f 5bbc 66cb f53c 2479 973a 8e2c da3c
00000240: 3745 97bc 02e6 c73c 9c65 c8bc 3d68 a3bc
00000250: c1f1 a9bc 8ed5 2cbd 40bc acbc 21af 0cbc
00000260: dceb babc 4dc5 b93c 90d6 a23d b3af e23d
00000270: 4616 e33d 8cf0 c73d b283 073d 0b75 6a3d
00000280: 2fbf fabc 2d3c 2bbd 5ee1 04bd c41d f2bc
00000290: 4994 02bd 04b6 e1bc 7a71 b1bc 1182 c0bc
000002a0: 4798 0d3d 1896 f8bc 404d 473c debf d1bc
000002b0: 72e8 8fbc 4935 1fbd 1d2a 1bbd 5aae 10bd
000002c0: 7d61 cdbc c727 8ebd f46b 77bc 9631 3ebb
000002d0: 9311 333d 78d1 a33d 7d6b 683d 1021 ab3d
000002e0: 6d5a f23d 9ba5 0c3e d495 063e 3b26 603d
000002f0: 44b6 993c 974c 543d 3e78 d7ba c8e4 783a
00000300: 81a1 f6bb 0150 47bc eefd 563c 86e8 813b
00000310: afaa 0d3b a007 c93c 9e85 ebbc 0ae9 043d
00000320: 1d69 643c f358 29bc ff27 f2bc 5e21 a3bc
00000330: ae69 67bd 57bb 24bd 75a8 4dbd b4cd 5d3c
00000340: 0e2b 053c 356f ca3c 1bd9 6a3d a2ac ce3d
00000350: 792c cd3d 7870 f03d 7fb1 033e f64c 923d
00000360: 31c2 603d f3fb 1f3d f019 ad3c 76e5 b0bc
00000370: 444b 5fbc 9f41 02bb 4d86 053b fd75 c33c
00000380: 66aa babc 796a bdbc 4d00 04bc 9bef dcbc
00000390: 5ddc b7bc 8a87 113c db26 4dbd 78df 35bd
000003a0: ae97 f3bc 8185 bf3b 3a67 93bb 3a97 cd3c
000003b0: 787b 073d 0590 093d 74bb 1f3d fad7 5a3d
000003c0: c553 e23d 4601 183e ec2c 103e 745d c83d
000003d0: 3518 4a3d 7b16 823d 4170 f63c bd0c cf3c
000003e0: c68c 1e3a 0457 56bd b1c8 e33c 9539 243c
000003f0: 54e3 cf3b 75a8 6739 2e85 323b e41e 19bb

bias f4 [10]
-0.1272129 0.18312542 -0.007942799 -0.11445952 0.06306198 0.26056862 0.0014225356 0.15904152
-0.42870608 -0.0383534
00000000: 1944 02be 3b85 3b3e 8322 02bc c169 eabd
00000010: a426 813d 4069 853e 6074 ba3a c8db 223e
00000020: 5d7f dbbe 7418 1dbd
